Code/week2/models/20251030_112344_tiny_net.pth (torch, 3489 bytes, 6 tensors)

fc1.weight f4 [8, 2]
000000 1d 73 e6 3f f9 e0 1f 3f b9 f1 f3 bf 94 4f 9c 3e
       1.800388 0.62452656 -1.9058143 0.30529463
000010 25 34 f4 bd 14 25 14 bf a4 7e ca be c5 3a 0a bf
       -0.11924008 -0.57869077 -0.39549744 -0.53995925
000020 bd 7c 9c bf 05 7a 5a 3e 74 57 35 bf 25 ea 27 3e
       -1.2225567 0.2133561 -0.7083657 0.16397913
000030 d8 9f 4b bf 77 49 ca be 76 3e da 3f 88 cc 2f bf
       -0.7954078 -0.39509174 1.7050312 -0.68671465

fc1.bias f4 [8]
000000 dc a4 89 3f 4d 27 6c bf ab 54 78 3f 51 17 89 3f
       1.0753436 -0.9224747 0.97004193 1.0710241
000010 92 ba d9 3f c1 fc 8d 3f f9 3a 2f 3f 20 06 42 bf
       1.7010062 1.1092759 0.6844936 -0.75790596

fc2.weight f4 [4, 8]
000000 f8 c4 9a 3f 03 33 e7 3f 3f dd f0 bd d0 b4 8c 3c
       1.209136 1.8062443 -0.11760949 0.017176062
000010 8d cb 21 be 5a d6 a5 3e 54 a8 de be 22 ac 90 bf
       -0.15800305 0.323901 -0.434878 -1.1302531
000020 86 37 01 3d 09 c5 8c 3d 4c 69 ad be 46 2d 90 3e
       0.031547092 0.06873519 -0.33869398 0.2815954
000030 b0 e2 b2 be 4d 19 74 3e b7 09 41 be 7e 53 cb 3c
       -0.34938574 0.23837776 -0.18851362 0.024820086
000040 aa 9e be 3f c0 f0 af 3e d7 e9 dd bd 1f 9a 03 bf
       1.489217 0.34363365 -0.10835617 -0.51407045
000050 14 a6 e4 bf a3 18 da bf f3 ab 0a bf ba 12 92 3f
       -1.7863183 -1.7038769 -0.54168624 1.1411965
000060 31 fb 40 bf 4f 5d cd bf 02 5b 0f 3f 06 50 0c 3f
       -0.7538329 -1.60441 0.5599824 0.54809606
000070 db c3 ee 3e c8 ef d1 3e bb b4 55 3f e6 c8 49 3f
       0.466338 0.4100325 0.834789 0.7882217

fc2.bias f4 [4]
000000 00 94 d7 3e 42 47 9b be 46 0d a8 bd d0 a5 80 3e
       0.42105103 -0.30327803 -0.08205657 0.25126505

fc3.weight f4 [2, 4]
000000 83 a6 cb 3f 6c 8a 63 be cb 08 a0 bf 4d 3e 63 bf
       1.591019 -0.22220773 -1.2502683 -0.8876694
000010 53 f3 c2 bf 3a 35 50 be dd 06 9b 3f de ec 5f 3f
       -1.5230507 -0.20332804 1.211147 0.87470806

fc3.bias f4 [2]
000000 53 00 14 be a0 d4 31 bf
       -0.14453249 -0.69465065
