Code/week2/models/20251030_112350_wide_net.pth (torch, 4065 bytes, 6 tensors)

fc1.weight f4 [16, 2]
0	0x3fff476d	1.9943672
1	0x3f0a2a6a	0.5397097
2	0x3f9bbb6f	1.2166575
3	0xbf22d021	-0.6359883
4	0x3d94034c	0.07227191
5	0xbecca1f6	-0.39967316
6	0x3f50d1a7	0.81569904
7	0xbf6af3ec	-0.91778445
8	0x3fc37c72	1.5272353
9	0x3ea3c499	0.3198593
10	0xbec82849	-0.39093235
11	0x3ec60b39	0.38680437
12	0xbf94c86c	-1.1623664
13	0xbf0e5522	-0.5559865
14	0xbf0de6b0	-0.55430126
15	0x3e93ba51	0.28853086
16	0xbe85d581	-0.26139453
17	0x3edd3e67	0.43211672
18	0xbfa1b228	-1.2632494
19	0x3ee42931	0.44562677
20	0x3ea9c120	0.33155155
21	0xbf129bb1	-0.57268816
22	0xbf90d984	-1.131638
23	0x3e30d5fd	0.1726913
24	0x3fe8ac91	1.8177663
25	0xbe8cc1e3	-0.27491674
26	0x3e4d907d	0.20074649
27	0x3fa2fd2b	1.2733511
28	0x3fd7a034	1.6845765
29	0x3e77ef96	0.24212489
30	0xbe153c57	-0.14573799
31	0xbe493301	-0.19648363

fc1.bias f4 [16]
0	0x3f8da7be	1.1066816
1	0xbf130568	-0.57430124
2	0x3f769b24	0.96330476
3	0xbf3edd08	-0.74556017
4	0xbf6fe1f3	-0.93704146
5	0xbd987563	-0.07444265
6	0xbf4b261b	-0.7935502
7	0x3f6c0f46	0.92210805
8	0x3f2a1021	0.6643086
9	0xbf10c37e	-0.565483
10	0x3f7b6412	0.9819957
11	0xbf1b8a9d	-0.6075838
12	0x3f4ce644	0.8003886
13	0xbefe4832	-0.49664456
14	0xbf8bb23c	-1.0913768
15	0xbf21c25e	-0.63187206

fc2.weight f4 [8, 16]
0	0x3cae5ab4	0.021283485
1	0xbe2049ad	-0.15653105
2	0xbd96217d	-0.07330606
3	0xbceba403	-0.02876473
4	0xbe0ba5cf	-0.1363747
5	0xbd8f4142	-0.06994869
6	0xbe5f648f	-0.21815704
7	0xbe22f522	-0.15913823
8	0xbe4424da	-0.19154683
9	0xbdb0854a	-0.08619173
10	0xbd8139ea	-0.06309874
11	0x3e376435	0.1790932
12	0xbe0bb523	-0.13643317
13	0xbe2d58ef	-0.16928457
14	0x3e27e454	0.16395694
15	0x3ac0f300	0.0014720857
16	0xbe3cec47	-0.18449508
17	0xbe3e7fe2	-0.18603471
18	0xbe0fe476	-0.14051995
19	0x3d8d8324	0.06909779
20	0xbe127647	-0.14302932
21	0xbdabed30	-0.08394849
22	0xbd9d22d9	-0.07672662
23	0xbe23829d	-0.15967794
24	0xbe1a580f	-0.15072654
25	0x3e352555	0.17690022
26	0xbd8c9b78	-0.06865591
27	0x3af0a7cd	0.0018360555
28	0x3e13a210	0.1441729
29	0x3db778c1	0.08958579
30	0xbd97e469	-0.07416613
31	0x3c932420	0.017961562
32	0xbe0f5678	-0.13997829
33	0xbe2d46d6	-0.16921553
34	0x3ca13090	0.019676477
35	0xbce32ac0	-0.027730346
36	0xbe9a03eb	-0.30081114
37	0x3e358fb3	0.17730598
38	0xbe81b282	-0.25331503
39	0xbcb294fd	-0.021799559
40	0xbe64d154	-0.22345477
41	0x3e105806	0.14096078
42	0xbdf413c8	-0.119178355
43	0xbe1d2518	-0.15346181
44	0xbe861f49	-0.26195744
45	0x3e03e658	0.12880838
46	0x3e32ab14	0.17448074
47	0xbde88184	-0.11352828
48	0x3f6a845e	0.91608226
49	0xbe80e64c	-0.25175703
50	0xbdf7613e	-0.12079094
51	0xbf0ddaaa	-0.5541178
52	0xbf27fb67	-0.65617985
53	0x3e85951b	0.2609032
54	0x3e8b3292	0.2718702
55	0x3e441253	0.19147615
56	0x3eae523e	0.3404712
57	0x3f16b07c	0.58863044
58	0xbeb30e84	-0.34972012
59	0x3f2e3bd1	0.6806002
60	0x3f32d1bb	0.69851273
61	0x3f6fd292	0.9368068
62	0xbf920007	-1.1406258
63	0xbe76657e	-0.24062154
64	0x3f58afe9	0.8464342
65	0xbf1eaf78	-0.61986494
66	0xbe7e477b	-0.24831955
67	0xbf763971	-0.961814
68	0xbf64a600	-0.89315796
69	0x3dd7c17d	0.10534952
70	0x3f82f7d6	1.0231884
71	0x3d359c46	0.044338487
72	0xbcbcf87b	-0.023067703
73	0x3f5babc5	0.85808975
74	0x3dbb7eb6	0.091550276
75	0x3f1198ff	0.5687408
76	0x3f822573	1.0167679
77	0x3f864e4e	1.0492647
78	0xbf852f41	-1.0405046
79	0xbe6af842	-0.22946265
80	0xbf3bb984	-0.7332995
81	0x3f11c87a	0.5694653
82	0x3ed860c4	0.42261326
83	0x3f14f70e	0.58189476
84	0x3f62200a	0.8833014
85	0x3d32ea44	0.043680444
86	0xbf16ccfd	-0.5890654
87	0x3f29e685	0.6636737
88	0x3e28cfda	0.16485539
89	0xbee74cd8	-0.45175815
90	0x3f01e355	0.50737506
91	0xbf84852b	-1.035314
92	0xbeafd8b7	-0.34345028
93	0xbf1963eb	-0.5991809
94	0x3f74ae46	0.9557842
95	0x3e18a2aa	0.14905801
96	0xbf56c922	-0.83900654
97	0x3f0da688	0.5533223
98	0x3f1cd932	0.61268914
99	0x3f67660d	0.9039009
100	0x3f802681	1.001175
101	0x3dae8f30	0.085234046
102	0xbf719da1	-0.9438115
103	0x3f0c33d5	0.5476659
104	0x3ef1a2e6	0.47194594
105	0xbf92da13	-1.1472801
106	0x3ef31974	0.47480357
107	0xbefb8649	-0.4912589
108	0xbef07636	-0.46965188
109	0xbfa0834e	-1.2540071
110	0x3f536bcb	0.82586354
111	0xbdde1998	-0.10844725
112	0x3ecdff24	0.4023372
113	0x3f549ba2	0.83049977
114	0x3cbd083f	0.023075221
115	0x3f92ddfb	1.1473993
116	0x3f942955	1.1575114
117	0xbd2ecee0	-0.04267776
118	0xbdb0ea6e	-0.08638464
119	0xbf8b34f3	-1.0875534
120	0xbf3bbaaf	-0.7333173
121	0xbeadb0f8	-0.3392408
122	0x3ec1aa42	0.3782521
123	0x3dd809f6	0.10548775
124	0x3eff478a	0.49859267
125	0x3e28a6b8	0.16469848
126	0x3fa1d256	1.2642314
127	0xbe5aa176	-0.21350655

fc2.bias f4 [8]
0	0x3cd4fc3a	0.025999177
1	0x3d00a8b4	0.031410888
2	0xbe90cdf8	-0.28282142
3	0x3edead35	0.4349152
4	0x3d51ca98	0.0512186
5	0x3f06444b	0.52447957
6	0x3f46113d	0.77370054
7	0xbf0d72dd	-0.5525339

fc3.weight f4 [2, 8]
0	0xbd6a096e	-0.0571379
1	0xbe93ad83	-0.28843316
2	0xbe5d064f	-0.21584438
3	0x3f51a8c1	0.81898123
4	0x3f7f2c59	0.99677044
5	0xbf54678a	-0.8297049
6	0xbf526933	-0.8219177
7	0xbf9ba25f	-1.2158927
8	0x3e2c1802	0.16806033
9	0xbe678d90	-0.22612596
10	0x3e8b36c9	0.27190235
11	0xbef3c775	-0.4761311
12	0xbef29e63	-0.47386464
13	0x3f3c9c22	0.7367574
14	0x3f74d4fc	0.9563749
15	0x3f806908	1.0032053

fc3.bias f4 [2]
0	0xbdf7daf3	-0.12102308
1	0xbe58d239	-0.21173944
