Code/week2/models/20251030_112604_small_net.pth (torch, 2769 bytes, 4 tensors)

fc1.weight f4 [4, 2]
0.756425 -1.3057361 0.33744824 0.17623617 -0.16300212 1.0784639 -1.0241181 0.8281401
00000000: 12a5 413f 5c22 a7bf 04c6 ac3e 4177 343e
00000010: 07ea 26be 1b0b 8a3f 4d16 83bf fd00 543f

fc1.bias f4 [4]
0.6218824 -0.8248133 1.4549192 -0.59394014
00000000: af33 1f3f f726 53bf cb3a ba3f 760c 18bf

fc2.weight f4 [2, 4]
-0.7648113 -0.07438837 0.50701076 0.6105076 0.41238695 -0.13628636 -0.60586184 -0.66509974
00000000: acca 43bf ee58 98bd 75cb 013f 3a4a 1c3f
00000010: 6224 d33e a78e 0bbe c319 1bbf fa43 2abf

fc2.bias f4 [2]
-0.5527592 0.19839212
00000000: a081 0dbf 4e27 4b3e
