Code/week2/models/20251030_112344_small_net.pth (torch, 2769 bytes, 4 tensors)

fc1.weight f4 [4, 2]
0	0xbea10393	-0.3144804
1	0x3f545fb9	0.8295856
2	0x3ee96d04	0.45590985
3	0xbee70ff2	-0.45129353
4	0x3e7d939e	0.24763343
5	0xbf43547e	-0.763008
6	0xbe62a7cc	-0.22134322
7	0x3f53060c	0.824311

fc1.bias f4 [4]
0	0x3faf900d	1.3715836
1	0x3f95c9b1	1.1702176
2	0x3f19184e	0.5980271
3	0xbeb380ed	-0.350593

fc2.weight f4 [2, 4]
0	0x3e95a1d3	0.29225025
1	0xbf0b6f35	-0.54466563
2	0xbec7717b	-0.38953766
3	0x3ecff444	0.40616047
4	0xbf700200	-0.9375305
5	0x3e9678b4	0.29388964
6	0x3f8f885d	1.121349
7	0xbf8cda9e	-1.1004217

fc2.bias f4 [2]
0	0xbe2765cb	-0.16347425
1	0xbef9ff2e	-0.488275
