Code/week2/models/20251030_112350_tiny_net.pth (torch, 3489 bytes, 6 tensors)

fc1.weight f4 [8, 2]
000000 18 53 cd 3d 81 5a 6a bf c6 7d 34 bf 58 2c 2a 3f
       0.100256145 -0.9154435 -0.70504415 0.66473913
000010 57 80 46 3e 2f b7 c2 3e 0a 33 d7 3f fd e9 af 3e
       0.19384895 0.38030383 1.6812451 0.34358206
000020 0b c9 ad 3f 15 e2 35 bf 9a 1f 87 3f 8d 2b ba be
       1.3576978 -0.710481 1.0556519 -0.36361352
000030 b6 72 16 be e8 be a1 bd 43 0f 07 40 17 a1 4d 3e
       -0.14692196 -0.078977406 2.1103065 0.20080982

fc1.bias f4 [8]
000000 f9 e4 ae 3f fa 28 8d be a5 76 52 bf b4 f2 83 bf
       1.3663627 -0.27570325 -0.8221229 -1.0308442
000010 d0 a9 53 bf c3 82 e0 3f d3 d0 03 bf cd ff 8d 3f
       -0.8268099 1.7539905 -0.51490515 1.1093689

fc2.weight f4 [4, 8]
000000 a5 d4 b3 3e f0 1a 1d 3f d1 86 5b be 01 42 ad bf
       0.35123172 0.6136923 -0.21438147 -1.3535768
000010 bc 56 b6 bf aa cb 6d bf 1d 2e 77 be 88 f8 d1 3f
       -1.4245219 -0.9288889 -0.24138685 1.6403971
000020 4e 36 cc 3d c3 5e d1 3e 4f a2 54 3e f8 bd 5b bf
       0.09971295 0.4089261 0.20765041 -0.85836744
000030 72 66 73 bf 31 4c f9 be 42 61 3b 3e a1 a5 1d 3f
       -0.95078194 -0.48690942 0.1829882 0.61580855
000040 f1 b6 af 3e 95 de 01 3f 15 cb bd bd b4 a8 bd bf
       0.3431926 0.5073026 -0.092672504 -1.4817109
000050 dd 2e 9b bf 0c 79 6d bf 50 75 01 3e c9 88 b4 3f
       -1.2123677 -0.9276283 0.12642407 1.4104244
000060 4e 82 62 3f 71 41 46 be 71 d1 62 bd 45 3a a9 3f
       0.8848008 -0.19360901 -0.05537552 1.3220907
000070 7f 18 cf 3e b0 0e 76 3f ee 62 04 3e d4 ed 5a be
       0.40448377 0.9611616 0.12928364 -0.21379787

fc2.bias f4 [4]
000000 37 0e bd 3e 96 5a 38 3f b5 b3 d6 3e 0e c9 32 3e
       0.36924908 0.72013223 0.4193398 0.17459509

fc3.weight f4 [2, 4]
000000 43 05 6f 3f d2 8d 93 3f ed 9d 8c 3f 7d 7b 70 bf
       0.93367404 1.1527655 1.0985695 -0.9393843
000010 e7 72 df bf 7b e3 57 bf 95 c4 9f bf ef 9b 6a 3f
       -1.745694 -0.8433148 -1.2481867 0.91644186

fc3.bias f4 [2]
000000 6d 1f b7 bd df b5 96 3d
       -0.08941541 0.07358908
