Code/week2/models/20251030_112605_wide_net.pth (torch, 4065 bytes, 6 tensors)

fc1.weight f4 [16, 2]
0	0xbf040957	-0.5157675
1	0x3eec1ac2	0.46114165
2	0x3eada969	0.33918312
3	0xbf05fc09	-0.523377
4	0xbfb6355e	-1.4235036
5	0xbf37287b	-0.71546143
6	0xbe146ec5	-0.1449538
7	0x3f25545f	0.64581865
8	0xbd9a4f22	-0.07534625
9	0x3f02fd6f	0.5116796
10	0x3efd5481	0.49478534
11	0xbf0d72f3	-0.55253524
12	0x3f971900	1.1804504
13	0xba6080ac	-0.00085640955
14	0xbf9df190	-1.2339344
15	0xbe09dbed	-0.13462801
16	0x3f888ce5	1.0667998
17	0x3ea90ba7	0.33016703
18	0x3f6a3e36	0.91501176
19	0xbf56ef57	-0.83958954
20	0x3f58e7c3	0.8472864
21	0x3e96b9a3	0.29438505
22	0xbfaea025	-1.3642622
23	0x3f43d8a2	0.7650243
24	0x3fece9d6	1.8508861
25	0x3e8f627f	0.28004834
26	0xbf817234	-1.0112977
27	0x3f12571b	0.5716416
28	0x3f8c96b5	1.0983492
29	0x3de3a1ae	0.11114822
30	0xbf455e3d	-0.7709692
31	0xbd8a9db5	-0.067683615

fc1.bias f4 [16]
0	0x3f6e3498	0.93049
1	0x3f82a04d	1.020517
2	0xbf7bc7ee	-0.98351943
3	0x3f695dd6	0.9115881
4	0xbe4b33c2	-0.19843963
5	0x3f160017	0.5859389
6	0x3f682bad	0.90691644
7	0x3f3732e5	0.71562034
8	0x3f0eeced	0.5583027
9	0xbf323ecc	-0.6962707
10	0x3f08b32b	0.5339839
11	0xbf422a8f	-0.7584619
12	0xbf93fa35	-1.1560732
13	0xbf10afe5	-0.56518394
14	0x3f403e64	0.750952
15	0x3f876ef5	1.0580736

fc2.weight f4 [8, 16]
0	0x3e8ce26c	0.27516496
1	0xbe4e0be4	-0.20121723
2	0x3f89ae06	1.0756233
3	0x3e988aa9	0.2979329
4	0x3f0cb142	0.54957974
5	0xbdeb998e	-0.115038976
6	0x3f253b7e	0.645439
7	0xbeb1a6d3	-0.3469759
8	0x3f17311d	0.59059316
9	0xbf23cfd2	-0.63988984
10	0x3f06b0f2	0.5261375
11	0x3ed9f30c	0.42568243
12	0xbfa60bfb	-1.2972406
13	0x3f3fb2c4	0.7488215
14	0x3ef9289d	0.48663798
15	0x3e74d942	0.23911002
16	0x3e06fcfb	0.13182442
17	0x3eef2700	0.46709442
18	0xbf4e21a2	-0.8052007
19	0xbd62a970	-0.05533737
20	0xbdca6b39	-0.09883732
21	0x3e964478	0.29349113
22	0xbe4871dd	-0.19574685
23	0x3f01e780	0.50743866
24	0xbe29cf20	-0.16582918
25	0x3f279361	0.6545926
26	0xbdfc685c	-0.123245925
27	0xbf02a4e9	-0.5103288
28	0x3f8d5438	1.1041327
29	0xbf33579a	-0.70055544
30	0xbe615d40	-0.22008228
31	0x3e62bd0c	0.22142428
32	0xbfb8701d	-1.4409214
33	0x3e2eba7c	0.17063326
34	0xbd9f7089	-0.07785136
35	0xbf42354e	-0.75862586
36	0xbecfd423	-0.40591535
37	0x3ed82039	0.42212084
38	0x3efd0314	0.4941641
39	0xbafe026b	-0.0019379383
40	0x3f0a3eef	0.5400228
41	0x3f4937fb	0.78601044
42	0x3d49236c	0.049106047
43	0xbec8b2a4	-0.39198792
44	0x3faee59f	1.3663825
45	0xbf1584de	-0.58405864
46	0x3f2d6ca5	0.67743903
47	0xbf093692	-0.5359889
48	0xbe1b7d03	-0.15184407
49	0xbe0adeed	-0.13561602
50	0xbd27ac22	-0.040935643
51	0x3d1a89ab	0.037728947
52	0x3e182222	0.1485677
53	0xbe7b0e72	-0.24517229
54	0xbd6f933f	-0.058490034
55	0x3dea31b7	0.114352636
56	0x3ddf85b9	0.109141774
57	0xbe5d4c3e	-0.21611115
58	0xbe97859a	-0.29594117
59	0xbdaa9866	-0.08329849
60	0xbe788c93	-0.24272375
61	0xbe6c8e8e	-0.23101255
62	0xbe01c1ca	-0.12671581
63	0xbe5d6b8b	-0.21623056
64	0xbe3e5b64	-0.1858955
65	0x3d99bc14	0.07506576
66	0xbe7d1e44	-0.24718577
67	0xbe302fe8	-0.17205775
68	0xbe35605e	-0.17712542
69	0xbe3a1a62	-0.18174127
70	0xbdc8f11c	-0.09811613
71	0xbdb5dff4	-0.08880606
72	0xbc6da280	-0.014504075
73	0xbde9436c	-0.11389813
74	0x3d8f3d48	0.0699411
75	0x3e3ce076	0.18445
76	0xbe79e838	-0.2440499
77	0x3b840ec0	0.0040300786
78	0xbe482912	-0.19546917
79	0x3e147342	0.14497092
80	0x3ee416d8	0.44548678
81	0xbe10370c	-0.14083499
82	0x3fa56e92	1.2924368
83	0x3e8b7c85	0.27243438
84	0x3ef26c79	0.47348383
85	0x3db73f01	0.08947564
86	0x3f15247d	0.582588
87	0xbf265173	-0.6496803
88	0x3f17f15a	0.5935265
89	0xbf4b9ea7	-0.7953896
90	0x3eabf9de	0.3358907
91	0x3f48e318	0.7847152
92	0xbf87e53c	-1.0616832
93	0x3ee8ae02	0.45445257
94	0x3f3f03ef	0.7461538
95	0x3e4c1267	0.19928895
96	0xbd103971	-0.03521103
97	0xbdf337d9	-0.118758865
98	0x3d34eda3	0.04417194
99	0x3d1b6895	0.037941534
100	0xbd309489	-0.043110404
101	0x3d0f2d84	0.034955516
102	0xbdad5db5	-0.08465139
103	0x3d985e4e	0.07439862
104	0x3cdbffa5	0.0268553
105	0x3dd2f7d9	0.103011794
106	0xbe972279	-0.29518488
107	0xbe8f5a9b	-0.27998814
108	0xbe06981d	-0.13143964
109	0x3db5b058	0.088715255
110	0xbec9511f	-0.39319703
111	0xbe83fb7a	-0.257778
112	0x3e2ca42d	0.16859503
113	0x3d6bd45b	0.057575565
114	0xbfe71f67	-1.8056458
115	0x3e4c7e98	0.19970167
116	0xbea8c9c5	-0.32966438
117	0x3ea15570	0.31510496
118	0xbf224e14	-0.6340039
119	0x3f272cee	0.6530293
120	0xbd6da4bc	-0.05801843
121	0x3f866ae2	1.0501368
122	0xbe183ec4	-0.14867693
123	0xbf946d58	-1.1595869
124	0x3fbb9da3	1.4657482
125	0xbf8b3e34	-1.0878358
126	0xbedc0b28	-0.42977262
127	0x3f3fa518	0.7486129

fc2.bias f4 [8]
0	0x3ee89312	0.45424706
1	0x3e357cec	0.17723435
2	0xbe8ddba7	-0.27706644
3	0xbe726ca0	-0.2367425
4	0xbe7e4ab0	-0.24833179
5	0x3eda278a	0.4260829
6	0xbdda5351	-0.106604226
7	0x3f04a525	0.5181449

fc3.weight f4 [2, 8]
0	0x3ed47dc0	0.4150219
1	0xbf4f3a5f	-0.8094844
2	0xbf78d3c7	-0.97198147
3	0xbe4eed7b	-0.20207779
4	0x3d0f93e5	0.035053153
5	0x3efd187d	0.49432746
6	0x3d9aa217	0.075504474
7	0xbf8bd95a	-1.0925705
8	0xbf617922	-0.8807546
9	0x3f4b5bcd	0.7943695
10	0x3f77c1a7	0.96779865
11	0x3e2c34c5	0.16817005
12	0xbd3e4764	-0.046454802
13	0xbf40372a	-0.75084174
14	0x3d0543e7	0.03253546
15	0x3fa56455	1.2921244

fc3.bias f4 [2]
0	0x3da2793a	0.079332784
1	0x3e20993c	0.15683454
