Code/week2/models/20251030_112350_small_net.pth (torch, 2769 bytes, 4 tensors)

fc1.weight f4 [4, 2]
0	0xbcc44608	-0.023959175
1	0x3f655e7e	0.8959731
2	0x3fbed97e	1.4910123
3	0xbed074f8	-0.4071424
4	0x3d1a82c0	0.03772235
5	0x3da09912	0.07841696
6	0x3eb977ae	0.3622412
7	0xbf3411d1	-0.70339686

fc1.bias f4 [4]
0	0x3f6b03cb	0.9180266
1	0xbf78997a	-0.97109187
2	0xbea93656	-0.33049268
3	0x3f8d6138	1.1045294

fc2.weight f4 [2, 4]
0	0x3f5bb4fd	0.8582304
1	0xbf9e6f8b	-1.237779
2	0xbd8011cc	-0.062533945
3	0xbf543b09	-0.8290258
4	0xbf4c8320	-0.7988758
5	0x3ed9cbf7	0.42538425
6	0x3e534e14	0.20635253
7	0x3f5e5fc0	0.8686485

fc2.bias f4 [2]
0	0x3ee2d1d6	0.44300717
1	0xbec7a250	-0.38991022
