Code/week2/models/20251030_112605_tiny_net.pth (torch, 3489 bytes, 6 tensors)

fc1.weight f4 [8, 2]
000000 24 1e 4b 3e 60 af 7a 3f c5 2f b0 3f dc fd 11 bf
       0.19835716 0.9792385 1.3764578 -0.57027984
000010 dc 01 fd bf 3c 04 17 bf be cf ba be 22 c3 a6 3e
       -1.9766192 -0.58990836 -0.3648662 0.3257075
000020 cc c3 d2 bf de d8 5a 3f c2 89 9c bf 76 d2 c8 be
       -1.6466002 0.85487163 -1.222954 -0.3922307
000030 cb 91 bb 3f a9 18 73 3c 80 e4 77 3f 80 70 c6 3e
       1.4653867 0.014837422 0.9683304 0.38757706

fc1.bias f4 [8]
000000 b1 26 5f 3f 15 19 1d bf 0a 61 ae bf ba 1e a4 3f
       0.87168413 -0.613664 -1.3623364 1.2821877
000010 40 b8 60 bf 00 bc 1d 3f ea e6 6b bf c8 1e 59 3f
       -0.87781143 0.6161499 -0.9214922 0.84812593

fc2.weight f4 [4, 8]
000000 f1 a9 f1 3e fc 01 d8 bf 37 15 82 3f f7 d3 3d 3f
       0.47199968 -1.6875606 1.0162724 0.7415156
000010 c7 54 6b 3f 80 dd 49 bf 7a 6d 64 bf 8e c2 39 3f
       0.91926235 -0.7885361 -0.8922955 0.7256249
000020 1b d1 3b 3f 03 27 79 3f 9a dd bf bf 45 6a c3 3e
       0.73365945 0.9732515 -1.4989502 0.38167015
000030 28 32 ae bf 31 61 89 3f 23 b9 96 3f 0e 64 b3 bf
       -1.3609056 1.0732785 1.1775249 -1.4014909
000040 42 31 2a bd 74 83 09 bf a2 1f e9 3c 00 05 d4 be
       -0.041550882 -0.53716207 0.028457467 -0.41410065
000050 13 86 34 3c 0a 6a 77 be c9 07 6a be 6f d6 f1 bc
       0.011018294 -0.24161544 -0.22854532 -0.029521195
000060 a5 f7 10 3e 0b be a4 3f f0 c2 d1 bf c4 4f eb 3d
       0.14156969 1.2870497 -1.6387615 0.114898235
000070 97 06 49 bf bc d6 80 3f 5a ee 97 3f eb 4f 4d bf
       -0.7852568 1.0065532 1.1869614 -0.8020007

fc2.bias f4 [4]
000000 18 8b 6b 3f 3c 99 f8 3e 77 b8 37 bc db ba 1d 3f
       0.92009115 0.4855441 -0.011213413 0.61613244

fc3.weight f4 [2, 4]
000000 32 d5 9f 3f 84 b3 80 bf 1e 53 56 3e aa ae 69 bf
       1.2486937 -1.0054784 0.20930144 -0.9128214
000010 91 04 78 bf f8 41 a7 3f 80 73 61 bd d2 48 98 3f
       -0.9688197 1.3067007 -0.05504179 1.1897223

fc3.bias f4 [2]
000000 21 78 11 3e 5a 1c e0 3e
       0.14205982 0.4377163
