Code/week2/models/20251030_112344_wide_net.pth (torch, 4065 bytes, 6 tensors)

fc1.weight f4 [16, 2]
-0.028278574 1.4069655 -1.3982866 -0.16103896 0.7411132 -0.71247095 0.63972396 -0.44261923
0.81171197 -0.83384734 0.17817673 0.05143275 -0.18281959 0.38478097 -1.2351016 0.16194928
-1.4039023 0.24782754 1.79176 0.38058832 0.14199209 -0.41087005 -0.46144778 0.6730397
-1.1570174 -0.19153848 0.83394724 0.30295548 1.6284418 1.2669181 -0.8461837 -0.49919188
00000000: 78a8 e7bc 7217 b43f 0efb b2bf 66e7 24be
00000010: 98b9 3d3f 7f64 36bf f3c4 233f fd9e e2be
00000020: 5bcc 4f3f 0577 55bf f673 363e 26ab 523d
00000030: 0f35 3bbe 0302 c53e cf17 9ebf 08d6 253e
00000040: 12b3 b3bf 81c6 7d3e 6458 e53f 79dc c23e
00000050: 6066 113e 8f5d d2be e242 ecbe 544c 2c3f
00000060: 2519 94bf aa22 44be 917d 553f fb1c 9b3e
00000070: c870 d03f 5f2a a23f 7f9f 58bf 1496 ffbe

fc1.bias f4 [16]
-0.7875536 -0.944168 -0.5881437 0.40604642 -0.68180764 -0.63227844 0.86012524 0.5738263
-0.81617945 -1.0332558 0.30776933 1.118303 -0.731728 0.6205863 0.24569349 0.32754388
00000000: 1d9d 49bf feb4 71bf 9690 16bf 51e5 cf3e
00000010: f28a 2ebf 00dd 21bf 2b31 5c3f 48e6 123f
00000020: 23f1 50bf ba41 84bf f193 9d3e 8d24 8f3f
00000030: 8752 3bbf bede 1e3f 1397 7b3e d5b3 a73e

fc2.weight f4 [8, 16]
-1.6138797 -1.5517218 0.6872176 0.01636457 0.82737285 0.1687751 0.4160471 0.6732261
-1.2504045 1.2848382 0.29190427 0.43497744 -0.9206189 -0.8580485 -0.16139932 0.41467407
-1.4412093 -0.48246378 0.79543823 -0.13486722 0.8768767 -0.09960781 0.006914538 0.68100333
-0.99852616 1.3392377 -0.10676603 0.16060697 -0.28195736 -0.4599657 0.088925555 0.7407391
0.8356228 0.3368736 -1.056561 0.724119 -1.1436083 0.013023347 0.12498306 -0.024704287
0.65858626 -1.1942418 0.30166662 0.19127196 0.2680216 0.1444855 0.86243284 -0.1271459
-0.25752908 -0.21311514 -0.0133329965 -0.28281924 -0.084258646 -0.111502916 0.111962035 -0.28727877
-0.15306677 0.14738634 -0.008523028 -0.040034037 -0.17249355 0.11906316 -0.15591308 -0.052208573
1.2431879 0.97874975 -0.4752797 -0.39717266 -0.42258957 -0.15793124 0.013685121 -0.13556017
0.9878325 -1.4148875 -0.7643965 0.09944773 0.5433198 0.0037915218 0.8169479 0.72961736
1.3802272 0.70766324 -0.8754188 0.77595633 -1.387291 -0.14801165 -0.021849189 -0.34299168
1.1200086 -1.453685 0.772376 0.27772823 0.5099005 0.6885139 0.88546926 -0.59556746
1.120465 -0.4803829 0.31517994 0.3134717 0.5384997 -0.0885665 -1.0184929 0.47310102
-0.38197243 1.1066933 0.3988659 -0.79905516 -0.1379207 -0.2220174 0.9795666 0.96565014
0.77710885 0.22672102 -0.28218663 0.31436342 -0.21924427 0.13631551 0.43642777 -0.121328436
0.81998193 -0.7423539 -0.26079467 0.363935 0.33075818 0.44406846 0.282365 -0.19945574
00000000: 9c93 cebf d29e c6bf 7eed 2f3f fe0e 863c
00000010: b5ce 533f 61d3 2c3e 2004 d53e 8c58 2c3f
00000020: 410d a0bf 9475 a43f 7a74 953e 5db5 de3e
00000030: aead 6bbf 11a9 5bbf dd45 25be 2950 d43e
00000040: 8c79 b8bf 7e05 f7be d7a1 4b3f a21a 0abe
00000050: fe7a 603f 2eff cbbd 5993 e23b 3c56 2e3f
00000060: 699f 7fbf 246c ab3f 26a8 dabd 2776 243e
00000070: b75c 90be a080 ebbe 9a1e b63d 14a1 3d3f
00000080: 60eb 553f b27a ac3e 643d 87bf dd5f 393f
00000090: c261 92bf e05f 553c 1ef7 ff3d a560 cabc
000000a0: 1c99 283f eadc 98bf 0c74 9a3e ccdc 433e
000000b0: 213a 893e 02f4 133e 66c8 5c3f 8932 02be
000000c0: dada 83be db3a 5abe a472 5abc afcd 90be
000000d0: cc8f acbd a45b e4bd 5a4c e53d 3416 93be
000000e0: 89bd 1cbe 72ec 163e 2ca4 0bbc bbfa 23bd
000000f0: 26a2 30be 63d7 f33d aea7 1fbe a8d8 55bd
00000100: c820 9f3f 588f 7a3f dc57 f3be 375a cbbe
00000110: a95d d8be bab8 21be 8f37 603c 49d0 0abe
00000120: 97e2 7c3f 091b b5bf 7daf 43bf 40ab cb3d
00000130: 0217 0b3f 2e7b 783b 7f23 513f 34c8 3a3f
00000140: 49ab b03f 6b29 353f 721b 60bf 13a5 463f
00000150: c092 b1bf 5e90 17be 12fd b2bc 9b9c afbe
00000160: 715c 8f3f 5a12 babf 6fba 453f 6532 8e3e
00000170: d788 023f 7242 303f 1dae 623f 1c77 18bf
00000180: 666b 8f3f bff4 f5be 445f a13e 5d7f a03e
00000190: 1edb 093f 5a62 b5bd fa5d 82bf 4c3a f23e
000001a0: e491 c3be 20a8 8d3f 2738 cc3e e18e 4cbf
000001b0: 153b 0dbe 8858 63be e0c4 7a3f d934 773f
000001c0: 9bf0 463f 8e29 683e c47a 90be 3ef4 a03e
000001d0: 9281 60be 4b96 0b3e 7673 df3e 0b7b f8bd
000001e0: 56ea 513f e80a 3ebf e186 85be b055 ba3e
000001f0: 2359 a93e f15c e33e 2592 903e 203e 4cbe

fc2.bias f4 [8]
0.48557624 0.23473428 -0.05570069 -0.24708301 -0.26235625 0.18987383 0.046916574 0.4837107
00000000: 739d f83e 2f5e 703e 6826 64bd 5403 7dbe
00000010: 8f53 86be 496e 423e 982b 403d eea8 f73e

fc3.weight f4 [2, 8]
-0.8583285 -0.99951893 0.48482943 0.09869118 0.21710314 0.82908636 -1.1120417 0.33518907
0.8465681 0.8718513 -0.5840374 0.14279513 -0.7753299 -0.6930046 0.9054332 -0.66598135
00000000: 6bbb 5bbf 79e0 7fbf 903b f83e 9a1e ca3d
00000010: 4950 5e3e 013f 543f 6257 8ebf e79d ab3e
00000020: b0b8 583f a631 5f3f 7a83 15bf e338 123e
00000030: 057c 46bf c068 31bf 78ca 673f c17d 2abf

fc3.bias f4 [2]
-0.17680876 0.03785017
00000000: 5b0d 35be c808 1b3d
