Code/week2/models/small_net_111807_30102025.pth (torch, 2769 bytes, 4 tensors)

fc1.weight f4 [4, 2]
00000000: b794 da3e 8403 a1bf b7e2 753f ed2b 233e
00000010: 486e 103e 0478 a9bf 76d6 b03f 11ab 22be
0.42691585 -1.2579198 0.96049064 0.15934725 0.14104569 -1.3239751 1.3815448 -0.15885569

fc1.bias f4 [4]
00000000: 2f79 14bf 5cb0 2dbf 11e0 8c3f b4d5 7dbf
-0.5799741 -0.6784723 1.100588 -0.9915421

fc2.weight f4 [2, 4]
00000000: 0574 ebbe 536e 72bf 3804 88bf 7c4d 97bf
00000010: 61f3 683f cf63 843f 9524 253f be04 4f3f
-0.45986953 -0.9469959 -1.0626287 -1.1820521 0.90996367 1.0342959 0.64508945 0.8086661

fc2.bias f4 [2]
00000000: cfe9 a43f 77ce b4bf
1.2883853 -1.4125508
