Code/week2/models/small_net_111058_30102025.pth (torch, 2769 bytes, 4 tensors)

fc1.weight f4 [4, 2]
-0.28892305 -0.044169717 -0.305345 1.1616327 0.6326126 -1.1885036 0.0010890699 -0.21100329
00000000: b9ed 93be 4eeb 34bd 2e56 9cbe 61b0 943f
00000010: e6f2 213f e320 98bf 1fbf 8e3a 3f11 58be

fc1.bias f4 [4]
-0.16611251 0.812179 0.7236253 -0.621159
00000000: 6619 2abe f7ea 4f3f 823f 393f 4704 1fbf

fc2.weight f4 [2, 4]
0.16589649 0.7405692 -0.592905 -0.055257462 -0.3037961 -0.6015481 0.8338176 -0.10924004
00000000: c5e0 293e f195 3d3f 9fc8 17bf a655 62bd
00000010: 2a8b 9bbe 0eff 19bf 1275 553f 3eb9 dfbd

fc2.bias f4 [2]
-0.19197921 -0.37014937
00000000: 3396 44be 3884 bdbe
