Code/week2/models/small_net_111131_30102025.pth (torch, 2769 bytes, 4 tensors)

fc1.weight f4 [4, 2]
00000000: deed 183f fbbb 61bf 3641 9b3e b150 8c3f
00000010: 3aad 31bf 0603 0f3f a470 c1bf fc35 00be
0.59737957 -0.8817746 0.3032319 1.0962125 -0.6940495 0.5586399 -1.51125 -0.12520593

fc1.bias f4 [4]
00000000: 4f03 083f ed09 993f 4ca0 1abf d27a a8bf
0.5313005 1.1956154 -0.60400844 -1.3162482

fc2.weight f4 [2, 4]
00000000: 9810 86bf 9184 8a3f e6e6 993f 3d93 cc3f
00000010: b8f7 3f3f aad3 04be 7cd9 95bf 567a 8dbf
-1.0473814 1.0821706 1.202359 1.5982434 0.74987364 -0.12971368 -1.1706996 -1.1052959

fc2.bias f4 [2]
00000000: 259f b93b fb01 223f
0.0056647235 0.6328427
