Code/week2/models/small_net_111602_30102025.pth (torch, 2769 bytes, 4 tensors)

fc1.weight f4 [4, 2]
00000000: 0406 933f 0f0a 2fbf 9561 073f bf22 283f
00000010: 942c ab3e 8ad7 2dbf 237c 03bf dc87 663f
1.1486211 -0.68374723 0.52883273 0.6567802 0.33432448 -0.6790701 -0.5136129 0.90051055

fc1.bias f4 [4]
00000000: af13 10bf cf6a 0f3f 35fe 8f3f 1c28 a43f
-0.56280035 0.5602235 1.1249453 1.282474

fc2.weight f4 [2, 4]
00000000: f4f4 96be 5573 023f 5051 89bf 886f 093f
00000010: 1245 563f 3af4 92be 72eb e93e eddc 20bf
-0.2948376 0.5095723 -1.072794 0.5368581 0.8369914 -0.28701955 0.45687443 -0.62837106

fc2.bias f4 [2]
00000000: edee 0ebd 7b84 37be
-0.034895826 -0.17921631
