Code/week2/models/small_net_112226_30102025.pth (torch, 2769 bytes, 4 tensors)

fc1.weight f4 [4, 2]
00000000: 934a 00c0 65aa c3be 582d 32bf f3e8 bf3e
00000010: 9502 203f b125 8fbf 836b e4bf c18b e73e
-2.0045516 -0.38215938 -0.6960044 0.37482414 0.6250394 -1.1183378 -1.784531 0.4522381

fc1.bias f4 [4]
00000000: 7f5c 7e3f a350 a03f 5142 713f f369 5fbf
0.9935989 1.2524608 0.94241816 -0.8727104

fc2.weight f4 [2, 4]
00000000: e966 8fbf 7408 833f 4dd7 59bf 5602 7e3f
00000010: 60cd 0a3f 2d0c b7bf f4e9 a53e 40ec 7dbf
-1.1203281 1.0236955 -0.8509415 0.99222314 0.5421963 -1.4300591 0.32405055 -0.99188614

fc2.bias f4 [2]
00000000: 2278 4bbd cf44 f93d
-0.049675114 0.12171327
