Code/week2/models/tiny_net_111059_30102025.pth (torch, 3489 bytes, 6 tensors)

fc1.weight f4 [8, 2]
0	0x3df76702	0.12080194
1	0x3f638c42	0.8888589
2	0xbdd4b2f3	-0.10385694
3	0xbdefa58d	-0.11701498
4	0x3f9c7420	1.2222939
5	0x3f267ca2	0.65033925
6	0xbde9059a	-0.113780215
7	0xbd923392	-0.071387425
8	0xbeb7da73	-0.3590885
9	0x3f69f6ae	0.9139203
10	0xbfc19f91	-1.5126821
11	0x3f04952a	0.51790106
12	0xbdd2e5f0	-0.10297763
13	0x3f0e46fe	0.55577075
14	0x3fbcd03c	1.4751048
15	0x3b608cb8	0.0034263562

fc1.bias f4 [8]
0	0x3ed7920c	0.42103612
1	0xbf0cc4b5	-0.5498765
2	0x3f2e8d26	0.68184125
3	0xbf05e0bc	-0.5229604
4	0x3fa8dbe0	1.31921
5	0xbf511e95	-0.8168729
6	0xbec1f2d8	-0.37880588
7	0xbf704a63	-0.93863505

fc2.weight f4 [4, 8]
0	0x3f09b0e5	0.53785545
1	0xbdccae7a	-0.09994216
2	0xbf370eaa	-0.7150675
3	0x3e68bb30	0.22727656
4	0x3edb7fc6	0.4287092
5	0xbf8a7c40	-1.0819168
6	0xc0243f5d	-2.5663674
7	0x3f2b4eee	0.6691731
8	0x3f375ae4	0.71623063
9	0xbe5d06bd	-0.21584602
10	0x3fbff2c5	1.4995962
11	0xbe2c8ad2	-0.16849831
12	0x3f3900e9	0.72267014
13	0x3f4226af	0.75840276
14	0xbd3be9d9	-0.04587731
15	0xbeda67f9	-0.4265745
16	0x3f8498ce	1.0359132
17	0xbe558736	-0.2085236
18	0xbece4322	-0.40285593
19	0x3e204445	0.15651043
20	0xbf9c6579	-1.2218467
21	0x3b7afd8b	0.0038298096
22	0xbd253e34	-0.040342525
23	0x3fc6d96b	1.5535101
24	0xbdeaba5b	-0.11461326
25	0xbb55ad13	-0.003260438
26	0x3e9e79c2	0.3095227
27	0xbe81a07a	-0.25317746
28	0xbe24e09e	-0.1610131
29	0xbd6cc6d9	-0.057806823
30	0xbeb5a84a	-0.35479957
31	0x3f8e3f09	1.1112987

fc2.bias f4 [4]
0	0x3f4d88ed	0.8028706
1	0x3d56ae4f	0.052412327
2	0x3f88026f	1.0625743
3	0xbeb0e1a2	-0.34547144

fc3.weight f4 [2, 4]
0	0xbfa88ea3	-1.3168529
1	0x3ec2457e	0.37943643
2	0xbfd7c9d3	-1.6858467
3	0xbf9382ec	-1.1524329
4	0x3f0516d8	0.5198798
5	0xbf8e365a	-1.1110337
6	0x400b5672	2.1771512
7	0x3fb885f9	1.4415885

fc3.bias f4 [2]
0	0xbebfc640	-0.3745594
1	0x3f2dac32	0.67840874
