Code/week2/models/tiny_net_111603_30102025.pth (torch, 3489 bytes, 6 tensors)

fc1.weight f4 [8, 2]
0	0xbecc762e	-0.39933914
1	0x3e582fae	0.21111938
2	0x3ff5c4af	1.9200648
3	0xbca50c34	-0.02014742
4	0xbf883eec	-1.0644202
5	0x3f2b725c	0.66971374
6	0xbe3ce380	-0.1844616
7	0xbe35ce7b	-0.17754547
8	0x3f87137d	1.0552822
9	0xbe8fa0d0	-0.28052378
10	0xbf5e59ed	-0.86855966
11	0x3f1ce66b	0.6128909
12	0x3f52062f	0.82040685
13	0x3fe2580e	1.7683122
14	0x3fd7e501	1.6866761
15	0x3e55f59e	0.20894477

fc1.bias f4 [8]
0	0x3f1a329f	0.6023349
1	0x3f52d625	0.8235801
2	0x3fde4aa0	1.7366524
3	0xbf256956	-0.64613855
4	0x3fdc8951	1.7229406
5	0x3fd81785	1.6882178
6	0xbe2a2027	-0.16613828
7	0x3f59fedc	0.8515451

fc2.weight f4 [4, 8]
0	0x3ec4eba6	0.38461035
1	0x3e3b3531	0.1828201
2	0x3ec7c1d9	0.39015082
3	0x3dbf9fc1	0.093566425
4	0xbf65e04c	-0.89795375
5	0x3ed10153	0.40821323
6	0x3f691114	0.91041684
7	0x3d39ee38	0.0453932
8	0x3e710aa3	0.23539214
9	0x3fb88d37	1.4418095
10	0x3ec98cf9	0.39365366
11	0x3e27fe93	0.16405706
12	0xbf768558	-0.96297216
13	0x3e5fd6a9	0.2185923
14	0x3c0a6806	0.008447653
15	0x3f895957	1.0730389
16	0xbda7b5d2	-0.08188976
17	0x3f7df016	0.9919447
18	0x3e7c4141	0.24634267
19	0xbdd20968	-0.102557
20	0xbf57003f	-0.8398475
21	0x3ee7c1aa	0.4526494
22	0x3ef8ffc6	0.4863264
23	0x3f911583	1.133469
24	0xbf280acc	-0.65641475
25	0x3f7413c0	0.95342636
26	0xbfc66678	-1.5500021
27	0x3e8ddd9a	0.2770813
28	0x3eb06856	0.34454602
29	0xbfe40b3e	-1.7815931
30	0x3f962eab	1.1732992
31	0x3f79049f	0.97272676

fc2.bias f4 [4]
0	0xbf99835e	-1.1993215
1	0xbf486540	-0.78279495
2	0xbf3eea0d	-0.74575883
3	0xbd9d3337	-0.07675784

fc3.weight f4 [2, 4]
0	0x3ef1f761	0.47259048
1	0x3fa2fe29	1.2733814
2	0x3ef79bd5	0.48361078
3	0xbf77ab58	-0.96745825
4	0xbf0d2df0	-0.5514822
5	0xbf9d233e	-1.227638
6	0xbf0a0680	-0.5391617
7	0x3fc6d296	1.5533016

fc3.bias f4 [2]
0	0xbfb204f0	-1.3907757
1	0x3f6e3827	0.9305443
