Code/week2/models/tiny_net_112227_30102025.pth (torch, 3489 bytes, 6 tensors)

fc1.weight f4 [8, 2]
0	0xbfe35280	-1.7759552
1	0x3ae110b5	0.0017171117
2	0x3d9ffc9c	0.07811853
3	0xbf8efe4e	-1.1171358
4	0x3f823896	1.0173519
5	0xbf3c591f	-0.7357349
6	0xbf611770	-0.8792639
7	0x3f20d224	0.6282065
8	0xbfe6a38c	-1.801866
9	0xbf0eb845	-0.55749923
10	0xbf097e88	-0.53708696
11	0x3fb46c79	1.4095603
12	0x3fdf06c1	1.7423936
13	0xbecd2f45	-0.40075126
14	0xbfe0a641	-1.7550737
15	0xbee7a065	-0.4523956

fc1.bias f4 [8]
0	0xbf86dd96	-1.0536373
1	0xbe8a6d1f	-0.27036378
2	0xbf04bc27	-0.518496
3	0x3f9b20ac	1.2119346
4	0xbfa6e6fc	-1.3039241
5	0xbf0cc76f	-0.5499181
6	0xbf747fde	-0.9550761
7	0x3f4a0a62	0.7892209

fc2.weight f4 [4, 8]
0	0x3fbbf354	1.4683633
1	0x3ed3b414	0.41348326
2	0xbeb84db1	-0.35996774
3	0x3f53e13e	0.8276557
4	0x3f8ba31c	1.0909152
5	0x3f115169	0.5676485
6	0xbf560e7a	-0.8361584
7	0xbfd04411	-1.6270772
8	0x3e478bae	0.19486877
9	0xbdbe6c8a	-0.09298046
10	0xbe35de98	-0.17760694
11	0xbdf258ff	-0.11833381
12	0xbdeae52d	-0.11469493
13	0xbe129033	-0.1431282
14	0x3dd1c189	0.10241992
15	0xbe1efaf5	-0.1552542
16	0x3eb0fd6e	0.34568352
17	0x3d25b723	0.040457856
18	0xbe7944bb	-0.24342625
19	0xbe82e043	-0.25561723
20	0x3bb34c6c	0.0054717567
21	0x3db2e07a	0.08734222
22	0xbe54d064	-0.2078262
23	0xbea1ceb2	-0.31603009
24	0xbfd75059	-1.6821395
25	0x3f6b2ae6	0.9186233
26	0x3f634f26	0.88792646
27	0x3f27965b	0.654638
28	0xbff4dbf8	-1.9129629
29	0xbfa64f70	-1.2992992
30	0x3f8e532d	1.1119133
31	0x3f8ce1cf	1.1006411

fc2.bias f4 [4]
0	0x3fc7681a	1.5578644
1	0xbd8b6342	-0.06806041
2	0xbe47a1a8	-0.1949526
3	0xbe3cb1d9	-0.18427218

fc3.weight f4 [2, 4]
0	0x3fbc4ff1	1.4711896
1	0x3e96f5aa	0.29484302
2	0x3ee7f574	0.45304453
3	0xbf2f9461	-0.68585783
4	0xbf63a367	-0.8892121
5	0xbec1b898	-0.37836146
6	0x3dd79dc0	0.10528135
7	0x3fb59983	1.4187473

fc3.bias f4 [2]
0	0x3f0639fe	0.5243224
1	0x3d8bfcb1	0.068353064
