Code/week2/models/tiny_net_111808_30102025.pth (torch, 3489 bytes, 6 tensors)

fc1.weight f4 [8, 2]
0.20083132 -0.4595414 0.19405016 0.21109468 0.29324007 -0.11261486 -0.17479663 0.23524955
0.3673047 -0.5080399 0.5419655 -0.7057262 -0.63894826 0.6451352 -0.11818878 0.62096035
00000000: baa6 4d3e 0349 ebbe 16b5 463e 3429 583e
00000010: 9023 963e 9fa2 e6bd e3fd 32be 42e5 703e
00000020: 5d0f bc3e e70e 02bf 40be 0a3f 79aa 34bf
00000030: 1d92 23bf 9527 253f f60c f2bd 42f7 1e3f

fc1.bias f4 [8]
0.53706557 0.07960098 0.31429502 0.6146784 -0.02650708 -0.6865664 -0.29223216 0.6858968
00000000: 217d 093f d705 a33d 47eb a03e 905b 1d3f
00000010: 6025 d9bc d1c2 2fbf 749f 95be ef96 2f3f

fc2.weight f4 [4, 8]
0.14677754 -0.1496455 -0.15355563 0.09664681 -0.075917855 -0.0273493 -0.24501973 -0.22452506
0.023202345 -0.31968123 -0.2849645 0.04773649 -0.15462372 -0.22486115 -0.1737766 -0.2899886
-0.15307474 -0.24228874 0.18741389 -0.2530354 0.1706402 -0.25736484 0.11667562 0.071264505
-0.338983 -0.030171158 0.28330955 -0.14991528 -0.08924439 -0.04122476 -0.23299924 -0.052456178
00000000: da4c 163e ac3c 19be b03d 1dbe c3ee c53d
00000010: d27a 9bbd a40b e0bc 74e6 7abe e6e9 65be
00000020: d812 be3c 42ad a3be dee6 91be 5687 433d
00000030: ae55 1ebe 0042 66be 7ef2 31be 6379 94be
00000040: a0bf 1cbe 8a1a 78be 6de9 3f3e db8d 81be
00000050: 4ebc 2e3e 53c5 83be a1f3 ee3d 20f3 913d
00000060: 2e8f adbe 8129 f7bc f30d 913e 6483 19be
00000070: c3c5 b6bd 4bdb 28bd 5a97 6ebe 4adc 56bd

fc2.bias f4 [4]
-0.31054914 -0.2778075 -0.25420082 0.062464956
00000000: 4c00 9fbe c93c 8ebe 9c26 82be 41db 7f3d

fc3.weight f4 [2, 4]
-0.36579323 -0.32558918 0.4959709 -0.18040526 -0.20188516 0.48296994 0.23211253 -0.32288754
00000000: 4049 bbbe a0b3 a6be e6ef fd3e 28bc 38be
00000010: fcba 4ebe d647 f73e e8ae 6d3e 8451 a5be

fc3.bias f4 [2]
0.27412584 0.20410286
00000000: 395a 8c3e 5700 513e
