Code/week2/models/tiny_net_111132_30102025.pth (torch, 3489 bytes, 6 tensors)

fc1.weight f4 [8, 2]
0	0x3f99b37a	1.2007897
1	0xbf5420b9	-0.8286243
2	0xbfb62aa5	-1.4231764
3	0x3cb2fc5d	0.021848852
4	0x3d6032cc	0.054735944
5	0x3e797e97	0.24364696
6	0xbef80de2	-0.48448092
7	0x3f9203ed	1.1407448
8	0x3f404f2f	0.75120825
9	0xbdae7bd5	-0.08519713
10	0xbfedd66c	-1.8581061
11	0x3bc1b9ba	0.005912033
12	0x3f1fbf1a	0.6240097
13	0xbe371aa3	-0.17881255
14	0xbdbe4bf5	-0.092918314
15	0x3cbbd69f	0.022929488

fc1.bias f4 [8]
0	0x3e441f1e	0.19152495
1	0x3f158844	0.5841105
2	0xbf038af9	-0.5138393
3	0xbed321df	-0.4123678
4	0x3f4773c2	0.7791101
5	0xbf85f8a7	-1.0466508
6	0x3e545cdd	0.2073855
7	0xbee17b7a	-0.44039518

fc2.weight f4 [4, 8]
0	0x3f3eabd8	0.7448096
1	0x3f462238	0.77395964
2	0xbe07b6da	-0.13253346
3	0xbf18ec2b	-0.59735364
4	0xbf04b264	-0.518347
5	0xbf6e6ff0	-0.93139553
6	0x3efec9f7	0.49763462
7	0x3dedb7e2	0.116073385
8	0xbc1e6138	-0.009666733
9	0x3b5fa74a	0.0034126812
10	0x3e7b4dd0	0.24541402
11	0xbbfd774d	-0.007735169
12	0xbec87a53	-0.39155826
13	0xbd9eedbc	-0.07760188
14	0x3d060091	0.032715384
15	0xbe49576c	-0.19662255
16	0xbeb6f1a9	-0.35731247
17	0x3ddd5fba	0.10809274
18	0x3e3c9f32	0.18420103
19	0x3f223c95	0.6337369
20	0x3f03dde9	0.51510483
21	0x3f9c6fe2	1.2221644
22	0xbdfbcf50	-0.12295401
23	0xbeaa21f2	-0.33229023
24	0x3f459f8c	0.77196574
25	0x3fdecdd6	1.7406566
26	0xbe16d613	-0.147301
27	0xbfb5e4d2	-1.4210455
28	0xbda2a12f	-0.079408996
29	0xbfcf47ea	-1.6193821
30	0x3d980679	0.074231096
31	0x3e7128b8	0.23550689

fc2.bias f4 [4]
0	0x3dfb2b04	0.12264064
1	0xbe4d409b	-0.20044176
2	0x3f5ae166	0.8550018
3	0xbe41c792	-0.18923786

fc3.weight f4 [2, 4]
0	0xbf8b2871	-1.0871717
1	0x3d708e81	0.058729652
2	0x3faf485c	1.3693957
3	0xbfb19118	-1.3872404
4	0x3f625c89	0.8842245
5	0x3d9b9256	0.07596271
6	0xbefe596b	-0.49677595
7	0x3f8bf594	1.093432

fc3.bias f4 [2]
0	0x3f0b7c4d	0.5448654
1	0xbf261761	-0.64879423
