Code/week2/models/wide_net_111059_30102025.pth (torch, 4065 bytes, 6 tensors)

fc1.weight f4 [16, 2]
0	0xbf1dc1c4	-0.6162379
1	0x3f5b8d8a	0.85762846
2	0x3e22cd84	0.1589871
3	0x3da732fc	0.081640214
4	0x3ff717ce	1.930414
5	0x3e9222e2	0.28542238
6	0xbe13ab43	-0.144208
7	0xbee6ce1e	-0.4507913
8	0x3f9ff601	1.249695
9	0x3e85f84a	0.26165992
10	0x3fcc8b31	1.5979978
11	0xbf448e55	-0.7677968
12	0x3f8cb775	1.0993487
13	0xbf60dcb6	-0.8783678
14	0xbb2e7789	-0.0026621541
15	0xbf0451ed	-0.5168751
16	0xbeb3940f	-0.35073897
17	0x3f2ca471	0.6743842
18	0xbfc1f19d	-1.515186
19	0xbf1e3328	-0.6179681
20	0x3eab9efb	0.3351973
21	0xbdd68715	-0.104749836
22	0xbeac61c3	-0.33668336
23	0x3e64a4d6	0.22328505
24	0x3f4c85e7	0.7989182
25	0x3e18f790	0.14938188
26	0x3fd731df	1.6812094
27	0x3e01bff4	0.1267088
28	0x3e2a5d61	0.16637184
29	0x3f278424	0.65436006
30	0x3e974709	0.29546383
31	0xbed178d0	-0.40912485

fc1.bias f4 [16]
0	0xbed1eecf	-0.4100251
1	0xbf0c7fc1	-0.54882437
2	0x3f9eaf56	1.2397258
3	0x3f728279	0.94730335
4	0xbf41fa1e	-0.75772274
5	0xbf329357	-0.6975607
6	0xbf3dd533	-0.7415344
7	0x3f7e354f	0.9930009
8	0x3f42357e	0.7586287
9	0xbf886697	-1.0656308
10	0xbf3cb7d3	-0.73717993
11	0x3f81fc62	1.0155146
12	0x3f04ad60	0.5182705
13	0xbf90d330	-1.1314449
14	0x3f674bd3	0.90350074
15	0x3f8d942f	1.1060847

fc2.weight f4 [8, 16]
0	0x3ff7a60c	1.9347548
1	0x3e62fede	0.22167537
2	0x3f2bf96f	0.6717748
3	0xbea88714	-0.32915556
4	0xbd54ab9c	-0.051921472
5	0xbef96a8e	-0.48714107
6	0xbf6bb83e	-0.92078006
7	0xbf201d6c	-0.62544894
8	0x3f6b9b04	0.9203341
9	0x3fdab4af	1.708639
10	0x3dcede7c	0.10101029
11	0x3e43d0d9	0.19122638
12	0xbe8b63ce	-0.27224582
13	0xbf0103db	-0.5039651
14	0x3ccde089	0.02513148
15	0xbf8e994f	-1.1140536
16	0xbf286299	-0.6577545
17	0xbd86635c	-0.0656192
18	0xbf891da4	-1.0712171
19	0x3ec397cd	0.38201752
20	0x3f993527	1.1969346
21	0x3f7c924c	0.9866073
22	0x3f89e0fd	1.0771786
23	0x3e054cd6	0.13017592
24	0x3edad5df	0.42741296
25	0xbfb0256d	-1.3761421
26	0x3d85b189	0.06528003
27	0x3ef358b7	0.47528622
28	0xbe57ec84	-0.21086317
29	0x3fc6fdd3	1.5546211
30	0x3e93569c	0.28777015
31	0x3e3211cd	0.17389603
32	0x3ddd82d0	0.10815966
33	0x3e5d6fec	0.21624726
34	0xbe2154e2	-0.15755036
35	0x3d937f10	0.072019696
36	0x3de48628	0.11158401
37	0xbd6d1688	-0.057882816
38	0x3c8b6b00	0.017018795
39	0xbd035500	-0.032063484
40	0x3e3a390c	0.18185824
41	0xbdd915a4	-0.10599831
42	0xbe3174fe	-0.17329785
43	0xbe17976c	-0.14803857
44	0xbe1101c2	-0.14160827
45	0xbd23c8a0	-0.039986253
46	0xbdf94528	-0.12171394
47	0xbe33660a	-0.17519394
48	0xbdacf841	-0.08445788
49	0x3e153a92	0.14573124
50	0xbcef3ec0	-0.029204726
51	0xbe024057	-0.12719856
52	0x3dedf5ef	0.11619174
53	0x3deec2b0	0.116582274
54	0x3d088d04	0.033337608
55	0xbe3ae9ae	-0.18253204
56	0xbc6fc154	-0.014633495
57	0xbd898d68	-0.06716424
58	0xbe8a53e6	-0.27017134
59	0xbeb20231	-0.34767297
60	0xbd5af3b8	-0.053455085
61	0x3d54dfaf	0.051971134
62	0xbda2e0f6	-0.07953064
63	0x3d7a3043	0.061081182
64	0x3f3360ee	0.7006978
65	0xbe2e8714	-0.17043716
66	0x3f081612	0.53158677
67	0x3dcd39e4	0.100208074
68	0xbf71b01f	-0.94409364
69	0xbef02dff	-0.46910092
70	0xbee0bf8f	-0.43896148
71	0x3ddcd807	0.107833914
72	0x3f0819d8	0.53164434
73	0x3f62c649	0.8858381
74	0x3de15c73	0.110039614
75	0x3eb3a170	0.35084105
76	0x3e8ce9ae	0.27522033
77	0xbf677d59	-0.9042564
78	0x3f119f40	0.5688362
79	0xbc551db3	-0.013007569
80	0xbc722317	-0.014778874
81	0x3db69fec	0.089172214
82	0xbe1dfa90	-0.15427613
83	0xbd842e42	-0.064541355
84	0x3dd0257f	0.10163402
85	0x3c645ca3	0.013938102
86	0xbc35c3e5	-0.011094068
87	0x3d710549	0.05884293
88	0x3d5a0c6c	0.053234503
89	0x3e9c1553	0.3048502
90	0x3c9e7ecc	0.01934757
91	0xbe220e55	-0.1582578
92	0x3e6a600a	0.22888198
93	0xbe89d2e8	-0.2691872
94	0xbe98ba14	-0.29829466
95	0xbe117ab9	-0.14206971
96	0xbe9d337f	-0.3070335
97	0x3d2f8bf8	0.042858094
98	0xbf453a33	-0.7704193
99	0x3ec87264	0.39149773
100	0x3f675aaf	0.9037275
101	0x3f2f80a6	0.68555677
102	0x3f0f9df4	0.5610039
103	0x3e2559d2	0.16147545
104	0x3e8edb47	0.2790167
105	0xbf977a77	-1.1834248
106	0x3e31f41b	0.17378275
107	0x3ec362da	0.38161355
108	0xbefe4faf	-0.4967017
109	0x3fa24df3	1.2680038
110	0x3d30a814	0.04312904
111	0x3ec97a17	0.3935096
112	0xbef5b3ab	-0.47988638
113	0x3e2bd8e4	0.16781956
114	0xbf83082b	-1.0236868
115	0x3d48d9bc	0.049035773
116	0x3f718e0a	0.9435736
117	0x3f2deac0	0.67936325
118	0x3f46443d	0.77447873
119	0x3ef9c36f	0.48781916
120	0x3ed0a493	0.4075056
121	0xbfd1fdaa	-1.6405537
122	0xbcc1fc0e	-0.02367976
123	0x3f0e543c	0.5559728
124	0xbedb77b0	-0.42864752
125	0x3f7448d4	0.95423627
126	0x3ed8cdd4	0.42344534
127	0x3eb43186	0.35194033

fc2.bias f4 [8]
0	0xbe00aede	-0.12566707
1	0x3ef57e01	0.47947696
2	0xbe4b07e8	-0.19827235
3	0xbe9cbb1b	-0.306115
4	0x3e9c54bc	0.30533397
5	0xbe477b60	-0.19480658
6	0x3e915b43	0.2838994
7	0x3e6b064a	0.22951618

fc3.weight f4 [2, 8]
0	0x3feb7738	1.8395758
1	0xbf8e5b75	-1.112166
2	0x3ced922a	0.02900036
3	0x3db9a296	0.09064214
4	0x3f3b9cff	0.7328643
5	0xbcfe909a	-0.03107481
6	0xbf81646f	-1.0108775
7	0xbf505fda	-0.8139626
8	0xbf947e2d	-1.1601006
9	0x3f33cc7d	0.702339
10	0xbe403aad	-0.18772383
11	0xbe7ea5bb	-0.24867909
12	0xbf55d32b	-0.8352534
13	0xbc0151e5	-0.00789306
14	0x3f1cde3e	0.61276615
15	0x3f768a42	0.96304715

fc3.bias f4 [2]
0	0x3d995847	0.07487541
1	0xbefe9b82	-0.49728018
