Code/week2/models/wide_net_111603_30102025.pth (torch, 4065 bytes, 6 tensors)

fc1.weight f4 [16, 2]
000000 0f 28 ad be 61 da c8 3e 06 bf 8b 3e ab fc c2 be
       -0.33819625 0.3922911 0.27294177 -0.38083395
000010 81 6e 5a bf 08 b2 6f 3e ce da e4 3f c5 33 5d 3e
       -0.85324866 0.23407757 1.7879274 0.2160178
000020 70 fa 95 bd 3c f2 38 be 50 b5 1f be e5 c2 32 3f
       -0.07323158 -0.18061155 -0.15596509 0.69828635
000030 f3 51 02 3f 63 9b f7 be 69 b2 88 be 7b 87 07 3f
       0.50906295 -0.48360738 -0.26698616 0.529411
000040 7b 7c a4 be db f5 08 3f 79 d6 a2 3f 10 54 42 3f
       -0.3212622 0.53500146 1.2721702 0.7590952
000050 7b e3 9a 3e 68 c9 5d 3f b1 31 db be 54 0d f8 be
       0.3025168 0.86635447 -0.4281135 -0.4844767
000060 aa 55 85 bf 90 0b 19 3f c6 0b c6 3f 7d c0 27 bf
       -1.0416768 0.5978327 1.5472343 -0.6552809
000070 20 f1 a1 3f 75 b7 12 3e 77 95 ea bf eb 46 41 3d
       1.265171 0.14327796 -1.8326863 0.047186773

fc1.bias f4 [16]
000000 e4 5f 74 3f dd 5b 39 3f 2d 73 8d 3f 6f 9b 8d bf
       0.9545882 0.724058 1.1050774 -1.106306
000010 fd 07 d2 be 9e 48 82 3f f8 27 81 3f d2 42 45 3f
       -0.4102172 1.0178411 1.0090322 0.77055085
000020 6b 95 68 3f 12 89 50 3f de 03 2d be b7 e8 00 3f
       0.90852994 0.8145915 -0.16896006 0.50355095
000030 bf 93 09 3f 84 36 3b 3f 21 65 51 bf 41 9f 83 bf
       0.5374107 0.7313006 -0.81794935 -1.0282975

fc2.weight f4 [8, 16]
000000 5c f1 ce bd 24 82 a8 bd 22 b5 78 be 68 60 40 be
       -0.101046294 -0.08227947 -0.24287847 -0.18786776
000010 76 db 04 3e d4 54 e0 3d b8 f3 65 be a0 aa 8f bc
       0.12974343 0.1095368 -0.22456253 -0.017537415
000020 70 de 13 3d 98 32 fa bd 92 18 04 3e 60 87 b3 3d
       0.036100805 -0.12216681 0.12899998 0.08766055
000030 98 24 e1 bd c0 85 52 bc 4e 9d 3a be a0 19 e8 3c
       -0.10993308 -0.012849271 -0.1822407 0.028332531
000040 10 e0 0e bf 37 5e d5 3e 9d f6 8e bf bb af 8b 3f
       -0.5581064 0.41673443 -1.116901 1.0913004
000050 7c e0 c6 bd 8c 26 09 bf 55 82 25 3f bc 58 2d bf
       -0.09710786 -0.5357444 0.64651996 -0.6771352
000060 95 55 81 bf 64 ba 30 bd 9c 95 39 3e 4d fc 3d 3d
       -1.0104243 -0.043146506 0.18123478 0.04638319
000070 89 91 fa 3d 7c 9c 54 3f c5 3b 94 3f 4e d1 08 3e
       0.1223479 0.83051276 1.158074 0.13361093
000080 9c 05 86 3e 6d 82 a6 be 49 77 3a be b2 5b a2 bf
       0.26176155 -0.32521382 -0.18209566 -1.2684233
000090 00 2c 92 bd 5a ea 9c 3e 00 c3 8a 3c 7b 10 c4 bd
       -0.071372986 0.30647546 0.016938686 -0.09573456
0000a0 a2 0c 20 3e 3e 64 6d 3f 0e 52 14 3f 98 c8 1a be
       0.15629819 0.9273108 0.57937706 -0.15115583
0000b0 e9 ab 5f be 4b f0 2d 3f 15 98 05 bf d2 30 c2 3f
       -0.21842922 0.6794478 -0.52185184 1.5171149
0000c0 12 23 01 bb 7b e2 4e be 89 ec 71 be 50 fe 86 bd
       -0.0019704741 -0.20203583 -0.23625387 -0.06591475
0000d0 98 f2 56 3e c8 b9 43 be c0 29 2e 3d 65 83 e0 bd
       0.2099098 -0.19113839 0.042520285 -0.109625615
0000e0 29 c3 e7 bd 81 f3 38 be c1 8c 19 be 8a 00 45 3d
       -0.11316521 -0.1806164 -0.149951 0.048096217
0000f0 7a 73 30 3e 8c 30 e0 bd 0f bd f8 3d c1 e3 fb 3d
       0.17231551 -0.109467596 0.12145435 0.122993
000100 db 2f 2c 3f 97 be c7 3e f2 a8 10 3f 64 4f bd 3f
       0.6726052 0.39012596 0.5650779 1.4789853
000110 da 11 72 be 94 ca a6 bd 9e a1 18 3f 5b ce 77 3d
       -0.23639622 -0.081441075 0.5962161 0.06049953
000120 1e 80 06 3c a8 4a 73 bf 63 e4 b8 be ef 44 04 3f
       0.008209256 -0.9503579 -0.36111745 0.51667684
000130 c0 b1 63 3f 4b 5d fb bd 9e 69 d9 3f 46 8e c3 bf
       0.889431 -0.122736536 1.6985357 -1.5277793
000140 69 87 af 3d a9 a3 26 bd 64 f2 25 be ae 8b b1 bf
       0.08570749 -0.040683422 -0.16205746 -1.3870752
000150 10 6c 79 bd 06 b4 4f 3e 54 25 b7 be 82 cf 7a 3d
       -0.060894072 0.20283517 -0.35770667 0.06123305
000160 0e c2 c8 3e 63 3d 2a 3f 33 d6 d4 3e 15 33 94 be
       0.39210552 0.6649992 0.4156967 -0.28945222
000170 dc 93 32 be 86 51 59 3f d8 cc 14 bf 7d 2c ab 3f
       -0.17439216 0.8489002 -0.58125067 1.3372952
000180 79 98 6a 3e ce ec cc be 20 70 a1 3e 49 0b 8f bf
       0.22909726 -0.40024418 0.31530857 -1.1175319
000190 7c 42 f5 3d 12 d7 85 3e 2d 27 eb be d5 71 26 3e
       0.119755715 0.26140648 -0.45928326 0.16254361
0001a0 ea dd b1 3e 8d b7 19 3f 88 d0 02 3f d8 ff 6b be
       0.3473962 0.600457 0.51099443 -0.23046815
0001b0 7f fd 1d 3e 0e 75 3d 3f e3 47 d7 bd f6 3c 86 3f
       0.15428732 0.74006736 -0.10511758 1.0487354
0001c0 02 6b 40 bf d0 ba 41 bd 9c cb 02 bf 4e 3c 89 3f
       -0.7516328 -0.0472973 -0.51091933 1.0721529
0001d0 e8 57 59 be a7 18 3c be 8f d2 e2 3e 07 49 ad bd
       -0.2122494 -0.18368779 0.44301268 -0.084611945
0001e0 4f 79 ab be 0e c0 7e be 25 eb e9 3d f4 b0 07 3e
       -0.3349099 -0.2487795 0.114218034 0.13251096
0001f0 a6 3a 9d bd 46 57 06 3f ed 89 ad 3d d4 16 12 be
       -0.07677202 0.5247692 0.08473573 -0.1426652

fc2.bias f4 [8]
000000 b6 bc 16 be e5 f8 32 be 37 f3 8f bd f6 59 7d be
       -0.14720425 -0.17477758 -0.070288114 -0.24741349
000010 4a 93 29 3f 9a 9e ba 3d b5 b7 16 3e 54 87 d0 bd
       0.6624037 0.09112282 0.14718516 -0.10182062

fc3.weight f4 [2, 8]
000000 7b b8 5a be c5 18 50 bf 65 59 b2 3e 3c 8b 71 3e
       -0.21359436 -0.81287795 0.34833828 0.2358827
000010 58 be 5c bf 12 c2 a5 3f ff d4 02 3f eb 28 9f be
       -0.8622794 1.294985 0.51106256 -0.31085905
000020 41 45 39 be 57 af 8e 3f 4d eb 20 bf 26 bf 44 3e
       -0.18092825 1.114726 -0.6285904 0.19213542
000030 47 45 48 3f 5e b8 57 bf ee d4 2d bf 3d 81 a9 3e
       0.7823071 -0.84265697 -0.6790303 0.33106413

fc3.bias f4 [2]
000000 c8 42 bb be 6a 92 2a 3e
       -0.36574388 0.16657415
