Code/week2/models/wide_net_112227_30102025.pth (torch, 4065 bytes, 6 tensors)

fc1.weight f4 [16, 2]
0.7494274 -0.21500951 1.6602372 0.49734187 0.013198519 0.63809407 -0.24075629 0.0031932925
0.1866308 -0.509082 -0.35754073 0.6722993 0.850298 -0.65163517 -0.21411821 0.58452034
0.100850336 -0.6714126 0.425543 -0.35599193 -0.14555591 0.395356 -2.0947664 0.39523506
-1.657778 0.24242362 -0.33203387 -0.0062618586 1.2595819 0.70233124 1.2431046 0.67984724
00000000: 79da 3f3f 742b 5cbe a782 d43f 98a3 fe3e
00000010: 9a3e 583c 225a 233f d188 76be 8f46 513b
00000020: 251c 3f3e 3353 02bf 940f b7be cf1b 2c3f
00000030: 21ad 593f 90d1 26bf ce41 5bbe 20a3 153f
00000040: 9f8a ce3d b2e1 2bbf c6e0 d93e 9344 b6be
00000050: 9c0c 15be 1a6c ca3e a710 06c0 405c ca3e
00000060: 1232 d4bf e63d 783e 5800 aabe 4730 cdbb
00000070: fb39 a13f fbcb 333f 0d1e 9f3f 780a 2e3f

fc1.bias f4 [16]
-0.46535683 -0.83930373 0.4773424 -0.75471956 -0.3912384 0.93885756 -0.55680597 0.69566226
1.0259534 0.7977015 0.69838244 -1.0252712 0.8276488 0.5370948 0.7765022 -0.519899
00000000: 4043 eebe 9cdc 56bf 3966 f43e 4d35 41bf
00000010: 6650 c8be f858 703f d68a 0ebf ec16 323f
00000020: 7152 833f 2a36 4c3f 31c9 323f 163c 83bf
00000030: cbe0 533f 0b7f 093f d9c8 463f 1a18 05bf

fc2.weight f4 [8, 16]
0.7178589 0.8495368 0.7171024 0.14551193 -0.022867067 -0.30140933 0.7825292 0.009333179
0.35654762 0.254526 -0.117159545 -1.5639443 0.7571313 -0.01862309 -1.298508 0.8970925
-0.07292545 0.11138907 0.13349393 0.07809478 0.13985884 0.22777015 -0.014882505 -0.20946288
0.010305524 0.012324154 -0.05364752 0.18736565 -0.20623317 -0.19173357 -0.021564066 -0.17559636
0.67239594 0.97507423 0.47186738 0.18712814 0.37221023 -0.06691445 0.9444426 0.1954503
0.4135672 0.21095312 -0.20976853 -1.6636045 0.5902035 0.19712083 -1.5584929 1.128422
1.3563454 1.072975 -0.90004826 0.0815091 0.80612224 -0.90946454 1.4336983 -0.717864
0.2943925 0.6495054 -0.6822297 -0.37138167 0.533389 -0.2797028 -0.33939865 1.1872743
0.11123198 0.05415609 -0.12136686 0.18237108 0.010567665 0.07169196 -0.14250886 0.1259
-0.022388259 -0.05341633 -0.21121734 -0.2571346 -0.13463934 0.0015563712 -0.22697654 -0.08570801
-0.30169278 -0.14229739 0.15313584 -0.16040272 -0.24090622 -0.11431124 0.20138538 0.0099125365
-0.25207245 -0.1027802 -0.23999463 -0.04260228 -0.29051265 0.10750469 0.002610468 0.059441984
0.16930595 1.1443511 0.17134854 0.15680848 0.4282513 0.045788392 0.8034751 0.033217337
0.4341577 0.18040128 -0.26949653 -1.6957545 0.8081967 0.17040657 -1.1309016 0.5440652
0.08278176 -0.037859883 0.16034275 0.05757159 -0.16428676 -0.26971877 0.17894125 0.110867806
-0.16943419 -0.24522635 -0.2328817 -0.069678664 0.06336635 -0.1478099 -0.1254735 0.115899876
00000000: 9ac5 373f 3e7b 593f 0694 373f 1401 153e
00000010: b753 bbbc 5352 9abe d553 483f 31ea 183c
00000020: 698d b63e 3b51 823e 58f1 efbd 542f c8bf
00000030: 5bd3 413f 738f 98bc 8335 a6bf dba7 653f
00000040: f059 95bd f41f e43d a2b2 083e 28f0 9f3d
00000050: 2837 0f3e 943c 693e c0d5 73bc 707d 56be
00000060: 80d8 283c 40eb 493c 80bd 5bbd c8dc 3f3e
00000070: ca2e 53be ce55 44be 20a7 b0bc 88cf 33be
00000080: 2422 2c3f 779e 793f 9a98 f13e 859e 3f3e
00000090: 5792 be3e 710a 89bd fdc6 713f 2024 483e
000000a0: 14bf d33e 1804 583e 90cd 56be fef0 d4bf
000000b0: 9417 173f 0bda 493e b27c c7bf 2270 903f
000000c0: ba9c ad3f 3f57 893f 9069 66bf 3eee a63d
000000d0: 075e 4e3f abd2 68bf 6d83 b73f efc5 37bf
000000e0: 9dba 963e fc45 263f 9ba6 2ebf bd25 bebe
000000f0: 2e8c 083f 3535 8fbe a9c5 adbe 9bf8 973f
00000100: 98cd e33d c7d2 5d3d 308f f8bd 7cbf 3a3e
00000110: 0024 2d3c 3cd3 923d d8ed 11be eeeb 003e
00000120: 9567 b7bc 15cb 5abd 5c49 58be 25a7 83be
00000130: e5de 09be 27ff cb3a 8a6c 68be ae87 afbd
00000140: 7a77 9abe 68b6 11be a4cf 1c3e 9c40 24be
00000150: 1fb0 76be 031c eabd f837 4e3e 3168 223c
00000160: a40f 81be 6d7e d2bd 27c1 75be ba7f 2ebd
00000170: 13be 94be 6b2b dc3d 6314 2b3b 7079 733d
00000180: 8a5e 2d3e 197a 923f fe75 2f3e 6792 203e
00000190: c143 db3e 9c8c 3b3d 8bb0 4d3f e70e 083d
000001a0: eb49 de3e 1dbb 383e 73fb 89be 7c0e d9bf
000001b0: fbe5 4e3f 0f7f 2e3e 62c1 90bf db47 0b3f
000001c0: 7c89 a93d f712 1bbd e430 243e 30d0 6b3d
000001d0: ca3a 28be 9418 8abe 603c 373e a90e e33d
000001e0: 2880 2dbe 9e1c 7bbe 8a78 6ebe b0b3 8ebd
000001f0: 38c6 813d 7a5b 17be 207c 00be ea5c ed3d

fc2.bias f4 [8]
0.24781536 -0.1937108 0.36383155 -0.354698 -0.2697374 -0.013570603 0.0717813 -0.14876439
00000000: 4fc3 7d3e 205c 46be 2148 ba3e fa9a b5be
00000010: 051b 8abe 3c57 5ebc 1302 933d b155 18be

fc3.weight f4 [2, 8]
-0.49536842 -0.13772443 -0.35036612 -1.2034206 -0.046535417 -0.016962407 -1.0542756 -0.013480301
0.7114052 0.033891965 0.9902077 0.8447813 0.21342127 0.21941158 0.9063136 -0.058928456
00000000: eea0 fdbe a207 0dbe 3063 b3be b009 9abf
00000010: ec9b 3ebd bff4 8abc 81f2 86bf 7bdc 5cbc
00000020: a71e 363f 4dd2 0a3d 407e 7d3f 9643 583f
00000030: 1b8b 5a3e 6ead 603e 2b04 683f f75e 71bd

fc3.bias f4 [2]
1.5148349 -1.4119343
00000000: 1ce6 c13f 43ba b4bf
