Code/week2/models/wide_net_111132_30102025.pth (torch, 4065 bytes, 6 tensors)

fc1.weight f4 [16, 2]
-0.12966312 1.411038 0.7526842 -0.93629235 0.22907844 1.1564816 -1.1981126 -0.32245943
0.04938102 0.15445231 -0.8348413 -0.4522012 1.7563158 -0.2963209 -0.308851 -0.54102254
-0.8450042 -0.3285385 0.34444126 -0.47134638 0.9489051 -0.56847274 -1.0510899 -0.42345574
0.17046693 -0.5312397 0.21943054 -0.7409361 -1.4987742 -0.14349449 0.7017021 -1.0791494
00000000: 69c6 04be e59c b43f e9af 403f dbb0 6fbf
00000010: 8a93 6a3e 9707 943f c15b 99bf 6719 a5be
00000020: c143 4a3d bf28 1e3e 29b8 55bf ea86 e7be
00000030: f5ce e03f 5fb7 97be b821 9ebe 7480 0abf
00000040: 3252 58bf 3336 a8be 9b5a b03e 5054 f1be
00000050: 72eb 723f 6e87 11bf 1d8a 86bf 31cf d8be
00000060: e28e 2e3e 53ff 07bf 66b2 603e fdad 3dbf
00000070: d5d7 bfbf 38f0 12be c0a2 333f 9121 8abf

fc1.bias f4 [16]
-0.5514298 -0.7165854 0.028147304 -0.7558284 0.5893444 0.3513821 -0.9726539 0.35177314
0.43063787 0.59157854 0.54472774 -0.7817147 0.65586406 0.55938923 -1.0334198 -0.6635087
00000000: 812a 0dbf 2472 37bf 2d95 e63c f87d 41bf
00000010: 46df 163f 5be8 b33e d9ff 78bf 9c1b b43e
00000020: 917c dc3e b171 173f 4773 0b3f 741e 48bf
00000030: b5e6 273f 2234 0f3f 1a47 84bf b5db 29bf

fc2.weight f4 [8, 16]
1.0865903 -0.89536744 0.17148846 0.8839673 0.30099148 -0.62826264 -1.78893 -0.24010842
-0.61979365 0.5979183 1.2080886 0.80934274 0.38245654 0.38116387 1.5291848 -0.8084208
-0.027416125 0.3346143 -0.2668436 -0.21429476 -0.1254879 0.67916536 1.0965351 0.3665787
0.553589 0.3314235 -0.05393281 -0.20149606 0.40033138 0.11111717 -0.46324784 0.47859097
-0.62637633 0.5818084 0.13391834 -0.823062 0.2589812 0.8226046 1.3177034 0.25558397
0.91549104 0.24276906 -0.17863742 -0.35798895 -0.0034696017 0.25201595 -1.0830643 0.45446074
-0.20432834 0.016839867 0.041936483 -0.24589065 -0.21012068 -0.022360323 -0.113583736 -0.34239402
-0.3364268 -0.32531524 0.051648226 -0.08101423 -0.06750778 0.10561323 -0.13808084 -0.11617591
0.90274876 -0.7439957 0.33522794 0.74063057 0.32856986 -0.6030956 -1.6340367 -0.18453436
-0.9333904 0.6863084 0.6331237 1.015013 0.2273728 0.48143798 1.4927438 -0.91857845
-0.29854435 0.6022584 0.023993831 -1.112619 0.27919397 0.9728256 1.6854239 0.18455264
1.2157415 0.00014541445 -0.42279235 -0.7326256 0.15530966 -0.013794222 -1.4640756 0.80789125
1.2800518 -0.040640272 0.43444857 0.90097994 0.0648087 0.2034195 -0.38932002 -0.33494255
0.5959882 -0.29750237 -0.15972492 1.3057144 -0.60571223 -0.18870705 1.5625175 0.02136929
-0.011322882 -0.36969241 -0.10118486 -0.30836722 -0.006152139 -0.13079713 -0.036392253 -0.101338275
-0.031842593 0.03749429 -0.2582326 0.021854606 0.04120408 0.04798566 0.18845758 0.09883726
00000000: 6415 8b3f cd36 65bf ac9a 2f3e ae4b 623f
00000010: 8e1b 9a3e d2d5 20bf a9fb e4bf fbde 75be
00000020: ccaa 1ebf 2c11 193f a6a2 9a3f 1631 4f3f
00000030: 58d1 c33e e927 c33e 54bc c33f aaf4 4ebf
00000040: c897 e0bc 9152 ab3e b99f 88be 1670 5bbe
00000050: e67f 00be c8dd 2d3f 435b 8c3f 34b0 bb3e
00000060: 02b8 0d3f 57b0 a93e a6e8 5cbd fc54 4ebe
00000070: 3cf8 cc3e 6691 e33d d22e edbe e009 f53e
00000080: 335a 20bf 65f1 143f e421 093e 31b4 52bf
00000090: 2f99 843e 3796 523f 81aa a83f e7db 823e
000000a0: 9f5d 6a3f 7498 783e baec 36be 544a b7be
000000b0: 4262 63bb 3c08 813e daa1 8abf 14af e83e
000000c0: 733b 51be c3f3 893c 97c5 2b3d c2ca 7bbe
000000d0: e029 57be ff2c b7bc 979e e8bd 454e afbe
000000e0: 2240 acbe b88f a6be 178d 533d caea a5bd
000000f0: 8541 8abd c04b d83d 1065 0dbe a3ed edbd
00000100: 8b1a 673f 8176 3ebf ffa2 ab3e f799 3d3f
00000110: 4f3a a83e 7964 1abf 1d28 d1bf 93f6 3cbe
00000120: acf2 6ebf e8b1 2f3f 6514 223f f2eb 813f
00000130: 6ad4 683e 0a7f f63e 3b12 bf3f f527 6bbf
00000140: ceda 98be 9b2d 1a3f b68e c43c 4d6a 8ebf
00000150: 83f2 8e3e 190b 793f f8bb d73f 5efb 3c3e
00000160: 6b9d 9b3f 657a 1839 3d78 d8be 5a8d 3bbf
00000170: 7f09 1f3e 2901 62bc d466 bbbf f6d1 4e3f
00000180: bdd8 a33f 6a76 26bd 0b70 de3e 9fa6 663f
00000190: 6cba 843d 344d 503e f454 c7be 977d abbe
000001a0: af92 183f 3b52 98be ee8e 23be a621 a73f
000001b0: f50f 1bbf 6c3c 41be 9300 c83f a60e af3c
000001c0: 9c83 39bc 5348 bdbe 023a cfbd 4fe2 9dbe
000001d0: e297 c9bb afef 05be 0b10 15bd 718a cfbd
000001e0: 616d 02bd 9d93 193d 1037 84be 6e08 b33c
000001f0: 9cc5 283d 9d8c 443d 06fb 403e 306b ca3d

fc2.bias f4 [8]
0.20611203 0.0090243155 0.018998535 -0.08873044 0.37763977 -0.03485727 0.06995335 -0.33181882
00000000: 080f 533e b9da 133c d1a2 9b3c 4eb8 b5bd
00000010: 005a c13e 7fc6 0ebd b443 8f3d 28e4 a9be

fc3.weight f4 [2, 8]
1.0518377 -0.56737715 -0.4769688 0.15232037 0.5469167 -0.73812115 0.6303887 -0.10117907
-0.97182536 0.5388556 0.8990391 0.057726927 -0.77417684 0.9477771 -0.9760202 -0.016996583
00000000: 9ea2 863f a13f 11bf 4135 f4be dff9 1b3e
00000010: bc02 0c3f 82f5 3cbf 2761 213f f936 cfbd
00000020: 8cc9 78bf 71f2 093f 6d27 663f 1273 6c3d
00000030: 7430 46bf 85a1 723f 76dc 79bf 6b3c 8bbc

fc3.bias f4 [2]
0.6122954 -0.18234642
00000000: 64bf 1c3f 05b9 3abe
