Code/week2/models/wide_net_111808_30102025.pth (torch, 4065 bytes, 6 tensors)

fc1.weight f4 [16, 2]
000000 a3 c5 25 3c 3c fb 93 3e 60 0e a5 bf d6 ad 06 bf
       0.010117921 0.28902614 -1.2895012 -0.52609
000010 1b ed 44 bf 21 e7 68 3f 91 a8 21 3f 5c 91 04 3f
       -0.76924294 0.90977675 0.63147837 0.517843
000020 13 57 94 3f fc 1d 3a be 80 18 2b 3d 38 7b c1 3e
       1.1589073 -0.181755 0.041771412 0.3778932
000030 fd 08 c7 be 61 53 0e bf 21 ac ac bf 0f 29 08 bf
       -0.38874045 -0.55595976 -1.349003 -0.5318765
000040 dd 94 51 bf 94 4f 21 3f cd 4d ba 3f 78 5a f2 be
       -0.8186777 0.6301205 1.4554993 -0.47334647
000050 72 10 88 bf 54 e9 07 bf 63 d8 12 3e c5 0a 59 3e
       -1.0630019 -0.53090405 0.14340357 0.21195515
000060 5e bc 68 be 51 eb f7 3e 18 d1 ae bf eb 50 ed 3e
       -0.22728106 0.4842172 -1.365756 0.46350798
000070 8b f5 0b bf c5 7f 07 be 29 06 51 3f a5 44 70 3b
       -0.54671544 -0.13232334 0.81650025 0.003666201

fc1.bias f4 [16]
000000 50 a9 82 3f 10 40 5c bf 82 f7 27 bf c0 ad 8d 3f
       1.020792 -0.8603525 -0.6561204 1.1068649
000010 47 f7 1c bf b1 47 1e 3f c0 a9 c8 3e 1c 8d 2e 3f
       -0.61314815 0.6182814 0.3919201 0.68184066
000020 32 19 ce 3e 08 91 61 bf 67 7a 3c bf ee e8 3a 3e
       0.40253597 -0.88111925 -0.7362427 0.18252918
000030 00 b5 a4 3e 5b 4c 5c bf b6 8f a1 be 57 96 20 3f
       0.32169342 -0.8605401 -0.31554955 0.627294

fc2.weight f4 [8, 16]
000000 60 59 bd 3e 51 e7 73 3f 82 f8 c3 3e 6f 70 62 3f
       0.3698225 0.95274836 0.38275534 0.8845281
000010 0b e5 8e bf bf 45 33 3f 01 12 b2 bd a5 b1 da be
       -1.1163648 0.700283 -0.0869484 -0.42713657
000020 6e dd 19 3e 5b 6f 85 bf 47 73 94 3f 91 64 10 3d
       0.15025875 -1.0424608 1.159768 0.035252158
000030 99 12 05 bd e9 80 42 3f c8 6e 18 3f ed ee be 3e
       -0.03248844 0.7597795 0.5954404 0.3729166
000040 e8 1c 3e 3c 3a 57 94 bf 20 a2 45 bf bf 89 13 be
       0.0116035715 -1.158912 -0.7720051 -0.14408015
000050 c0 c4 99 3f c7 10 0c 3e 92 4b 8a 3e 2f 15 41 3f
       1.2013168 0.13678275 0.2701078 0.7542295
000060 9a 3b e0 3e 40 54 7f 3f 5d e3 8f bf cd db 2f 3d
       0.43795472 0.9973793 -1.1241261 0.042934228
000070 23 86 84 3e d3 41 67 bf 7f 0b b1 be ca 6c db be
       0.25883588 -0.90334815 -0.34579083 -0.42856437
000080 66 0c ab be bb c4 55 bf 69 eb ec be 24 be 95 3d
       -0.33407897 -0.8350331 -0.46273354 0.07311657
000090 50 7d 41 3f 77 36 9b 3d 3c 5e 33 3e 8f 52 40 3f
       0.75581837 0.07578748 0.17516416 0.75125974
0000a0 9b 96 c3 3e d4 0f 6d 3f 90 a5 82 bf d6 35 6a 3d
       0.3820084 0.92602277 -1.0206776 0.05718025
0000b0 42 fc 9d bd 05 e6 41 bf 5e e4 11 be f2 ac 8f be
       -0.0771413 -0.75741607 -0.14247271 -0.28061634
0000c0 69 0e de be 40 5d 7b bf 7e 76 a5 bf 4f b8 2d 3e
       -0.4337037 -0.98189163 -1.2926786 0.1696484
0000d0 dd d3 95 3f 24 43 40 3e eb 42 95 3e d7 c8 64 3f
       1.170528 0.18775612 0.29152617 0.8936896
0000e0 bd e2 3b 3f ec 00 64 3f ad e8 73 bf 57 91 cc bd
       0.7339285 0.89063907 -0.9527691 -0.09988659
0000f0 1a e4 94 3e ca 88 78 bf 6e 81 91 bf 18 33 21 bf
       0.29080278 -0.97083724 -1.1367624 -0.6296859
000100 96 3a 3a be 9a c8 7a bf a4 fc d3 be 07 6a d2 bd
       -0.18186411 -0.97962344 -0.41403687 -0.10274129
000110 df 4b 85 3f 4b 2a 6e 3e 05 e3 99 3e 0d 7c 15 3f
       1.0413779 0.23258321 0.30056015 0.5839241
000120 a1 c7 33 3e 3f 47 77 3f 4e 9a 68 bf 66 0f 76 3d
       0.17556621 0.9659309 -0.9086045 0.06007328
000130 c7 17 ac 3d e0 4e 35 bf bd 04 0f bd 9e f9 ac be
       0.08402973 -0.7082348 -0.03491663 -0.33784193
000140 6c b3 58 3e dc 1a bc bd 40 df 4f 3c a8 fd 41 3d
       0.21162194 -0.091848105 0.012687504 0.047361046
000150 c0 dc 84 3b 80 3e 4d be d8 9f 1b bd 78 1c 57 be
       0.0040546358 -0.20043373 -0.037994236 -0.21006954
000160 c0 43 b7 bb 90 0a 6f 3d dc 6f 5c 3e 48 82 56 bd
       -0.005592793 0.058359683 0.21527046 -0.05237034
000170 80 1e df 3b fc aa 8e bd b8 76 37 3e d0 02 31 bd
       0.006809056 -0.069662064 0.17916381 -0.043215573
000180 8b e2 99 3e 00 bb fe 3e 50 56 05 3f a4 31 4b 3f
       0.3005565 0.49752045 0.5208483 0.7937262
000190 bf bf 91 bf 19 8e ba 3e e2 0c 84 be fb ad 01 bf
       -1.1386641 0.36436537 -0.2579108 -0.506561
0001a0 02 23 b2 3e 03 77 21 bf f8 ab 6b 3f 6e 20 ed 3d
       0.34792334 -0.6307222 0.9205928 0.11578451
0001b0 2b a2 09 3e db 64 2a 3f c0 9b 1f 3e 1a 22 c7 3d
       0.13440768 0.66560143 0.15586758 0.09723301
0001c0 e4 2b dc bd ec e4 fc be 25 40 39 be 53 0b f0 3d
       -0.10750559 -0.49393404 -0.18090875 0.1172091
0001d0 0a 20 27 3f 10 38 04 be 1e dc 61 3e 2e 9e 2d 3f
       0.6528326 -0.12912011 0.22056624 0.6781949
0001e0 0c 6d c9 bc 5c 07 1f 3f d0 45 1a bf 24 15 12 3d
       -0.02458813 0.62120605 -0.60262775 0.035664693
0001f0 fc 33 a6 bd bc 09 25 bf c4 36 14 be 27 83 e5 bd
       -0.08115384 -0.6446798 -0.14474016 -0.11206656

fc2.bias f4 [8]
000000 0c fa 38 3f 97 01 1c 3e e2 05 95 3e b2 b8 9c 3e
       0.7225654 0.15234981 0.2910605 0.3060966
000010 32 d0 b4 3e ca 67 71 be 3a e1 32 3f 7a 49 5b 3e
       0.3531509 -0.23574749 0.6987492 0.21414748

fc3.weight f4 [2, 8]
000000 72 9a 2f 3f 28 5c 57 bf 68 d6 48 bf c3 5d 7b bf
       0.6859504 -0.84124994 -0.7845216 -0.98189944
000010 7b 1f 49 bf 41 a5 8f 3e d8 96 3e 3f 0b a8 ea be
       -0.7856366 0.28055766 0.7444892 -0.45831332
000020 cd 96 02 bf 46 34 65 3f af 9b 28 3f 46 cf 18 3f
       -0.51011354 0.8953289 0.65862554 0.59691274
000030 6e 7c 57 3f a3 f6 aa 3c cb 3e 0a bf ed 18 c6 3e
       0.8417424 0.020869559 -0.54002064 0.38690892

fc3.bias f4 [2]
000000 74 d5 c4 3e 9d a6 da 3d
       0.38444102 0.1067631
