Code/week4/models/20251117_104023_MiniNet.pth (torch, 461101 bytes, 8 tensors)

conv1.weight f4 [16, 1, 5, 5]
0.025417395 0.10756828 -0.26513466 -0.33598512 -0.16019955 0.15473892 0.017595818 -0.033910833
-0.31058088 -0.12302443 0.131906 0.10283752 -0.26893032 -0.31261906 -0.21880925 0.18922696
0.27587044 0.23963484 -0.061781794 -0.055714477 0.19139959 0.35696217 0.1928681 0.38186088
0.1625516 0.09265674 0.3093973 -0.058337595 -0.15060386 -0.23326777 0.030645272 0.36613446
0.036597896 -0.16177231 -0.41734242 -0.024708508 0.1229365 0.29376766 -0.079085395 -0.1808449
0.10923184 0.08500377 0.18255834 -0.24847263 -0.27591848 -0.038513478 0.26531538 0.24382669
-0.06886922 -0.054088216 0.13478257 0.27044493 0.14274774 0.019912347 0.086366825 -0.11349326
0.10993779 -0.08563724 -0.15102512 -0.15675117 0.032126103 0.113934785 -0.038249526 0.100353986
0.11663285 -0.13391094 -0.0013810773 0.08625686 0.2019738 0.25725457 -0.27531084 -0.099441096
0.087234095 0.2398946 0.21312793 0.20707694 0.13264576 -0.028305413 0.11581994 -0.14385521
-0.11098855 0.29020762 0.26118588 -0.16883312 -0.088183194 0.06980239 0.12730782 0.015866086
0.017926076 -0.3487575 0.12900123 0.19581707 0.18120618 -0.0426215 -0.39845014 -0.05051408
0.19255267 0.06262369 -0.2557558 -0.27699366 0.29569995 0.24036574 -0.090282075 -0.1953668
-0.31261835 -0.0062232143 -0.18586105 -0.24337666 -0.06118348 0.08367899 -0.21615745 0.109914124
-0.027877167 0.33593464 0.29157183 -0.19854504 0.06390356 0.16159756 0.158197 0.092601694
0.07765116 0.08447676 -0.08239851 0.037981812 -0.32150438 -0.21596222 -0.25516194 -0.29215756
-0.24060388 -0.18999287 -0.07991811 -0.06704288 -0.16478768 0.056048978 0.24470298 0.060303535
0.08489198 0.12427633 0.23161285 0.2584566 0.33485344 0.30984527 0.35124347 0.12098646
-0.12677842 0.011296193 0.28020105 0.081328794 -0.08772675 -0.19508408 -0.051662106 0.07636257
0.24274418 0.34124333 0.3132596 -0.4601517 -0.18163423 -0.34122744 -0.09717567 -0.079996884
-0.1404419 -0.33990553 -0.56326425 -0.47872436 -0.2312634 0.16453126 0.041033994 0.0808579
-0.18962707 -0.04458644 0.3603303 0.12593646 0.31057838 0.21627975 -0.031163527 0.17742047
-0.0020189323 -0.037194725 0.23456486 -0.064718045 0.09791783 0.09237314 0.29028103 0.20864555
0.25360954 0.19067274 0.10722074 0.059578158 -0.06737096 0.21864976 0.20186602 0.11832196
-0.21970303 -0.09020676 -0.2529873 -0.1498716 -0.34845868 -0.20883459 -0.36576325 -0.15352957
0.09295227 0.1982502 -0.16306254 -0.27159542 -0.28357053 0.24405193 0.07326221 0.27686286
0.052909713 -0.02058619 0.07933603 0.08426698 0.17079787 0.0296976 0.034468394 0.044691708
-0.08068073 -0.032369208 0.21830921 -0.13638735 -0.03599191 0.21107896 0.08553406 0.055614345
-0.14978486 0.1470296 -0.1469483 -0.055699073 -0.03627528 -0.02856016 0.06469241 0.214092
0.076554075 0.30490282 0.20774664 -0.106785536 0.12371067 -0.11591803 -0.01249069 0.14811525
0.017345047 0.11898843 -0.10399934 -0.028975887 0.16546169 -0.3212653 0.031480353 -0.2695354
-0.091750704 -0.0328869 -0.0077193803 0.15398557 0.24146448 -0.17647643 -0.38951144 -0.05179098
00000000: 2438 d03c c24c dc3d bbbf 87be 3e06 acbe
00000010: 5a0b 24be e173 1e3e 1b25 903c 16e6 0abd
00000020: 7504 9fbe 3bf4 fbbd 5e12 073e 7a9c d23d
00000030: 3cb1 89be 9b0f a0be 880f 60be b6c4 413e
00000040: e43e 8d3e d662 753e e80e 7dbd dd34 64bd
00000050: 41fe 433e bfc3 b63e 377f 453e 4583 c33e
00000060: ed73 263e d1c2 bd3d 5369 9e3e 67f3 6ebd
00000070: e637 1abe bfdd 6ebe cb0b fb3c fa75 bb3e
00000080: ade7 153d a4a7 25be e8ad d5be 7f69 cabc
00000090: 22c6 fb3d b768 963e 86f7 a1bd 682f 39be
000000a0: f1b4 df3d 7516 ae3d 93f0 3a3e 9c6f 7ebe
000000b0: 3045 8dbe 4fc0 1dbd 6bd7 873e b4ad 793e
000000c0: 4e0b 8dbd 9b8b 5dbd 7104 0a3e c277 8a3e
000000d0: 772c 123e 381f a33c 17e1 b03d 286f e8bd
000000e0: 1027 e13d 9462 afbd 54a6 1abe 6183 20be
000000f0: a996 033d a456 e93d 89ab 1cbd 6486 cd3d
00000100: 34dd ee3d f31f 09be 4405 b5ba 70a7 b03d
00000110: 38d2 4e3e dfb6 833e 8bf5 8cbe c6a7 cbbd
00000120: caa7 b23d eea6 753e 353e 5a3e fa0b 543e
00000130: 4ad4 073e c1e0 e7bc 0133 ed3d c84e 13be
00000140: f74d e3bd 1896 943e 28ba 853e 97e2 2cbe
00000150: 6499 b4bd 8ef4 8e3d fb5c 023e 98f9 813c
00000160: b5d9 923c 5890 b2be e618 043e 4584 483e
00000170: 1d8e 393e e293 2ebd a801 ccbe dae7 4ebd
00000180: 872c 453e d940 803d 6df2 82be 1dd2 8dbe
00000190: fc65 973e 7022 763e cfe5 b8bd 3c0e 48be
000001a0: 830f a0be 1bec cbbb 5c52 3ebe bb37 79be
000001b0: 879b 7abd e45f ab3d 6158 5dbe a81a e13d
000001c0: a85e e4bc a0ff ab3e e748 953e 644f 4bbe
000001d0: dfdf 823d d579 253e 65fe 213e f5a5 bd3d
000001e0: 9207 9f3d 2702 ad3d 8dc0 a8bd d192 1b3d
000001f0: 399c a4be 3325 5dbe 96a4 82be ad95 95be
00000200: dd60 76be 7e8d 42be 1bac a3bd c74d 89bd
00000210: 1abe 28be 9d93 653d 6b93 7a3e d700 773d
00000220: d9db ad3d 9784 fe3d eb2b 6d3e 6c54 843e
00000230: e971 ab3e 0aa4 9e3e 2fd6 b33e c0c7 f73d
00000240: 34d2 01be ab13 393c 8376 8f3e b68f a63d
00000250: 15aa b3bd 1fc4 47be a59b 53bd fb63 9c3d
00000260: ee91 783e 72b7 ae3e 9063 a03e 0199 ebbe
00000270: 53fe 39be 5db5 aebe 0a04 c7bd 68d5 a3bd
00000280: 00d0 0fbe 1908 aebe 1632 10bf 5c1b f5be
00000290: 50d0 6cbe e27a 283e 4313 283d d498 a53d
000002a0: 992d 42be 45a0 36bd 377d b83e 7df5 003e
000002b0: 2104 9f3e 7078 5d3e a74a ffbc b6ad 353e
000002c0: 1050 04bb 7f59 18bd c531 703e e58a 84bd
000002d0: 2589 c83d 212e bd3d b79f 943e 2ea7 553e
000002e0: 1cd9 813e b73f 433e 8c96 db3d 3a08 743d
000002f0: c9f9 89bd b9e5 5f3e f7b5 4e3e c952 f23d
00000300: d5f9 60be 52be b8bd 8d87 81be f177 19be
00000310: 2d69 b2be bcd8 55be 5245 bbbe db36 1dbe
00000320: c25d be3d 1a02 4b3e def9 26be 8e0e 8bbe
00000330: 2830 91be c0e8 793e 7f0a 963d f8c0 8d3e
00000340: dbb7 583d 5fa4 a8bc ee7a a23d 2b94 ac3d
00000350: a3e5 2e3e 6248 f33c bb2e 0d3d a70e 373d
00000360: f03b a5bd 9395 04bd 738c 5f3e 20a9 0bbe
00000370: 416c 13bd 1525 583e 7b2c af3d decb 633d
00000380: 3461 19be ed8e 163e 9d79 16be b624 64bd
00000390: 6395 14bd fff6 e9bc 747d 843d ef3a 5b3e
000003a0: 62c8 9c3d 391c 9c3e 89bb 543e 60b2 dabd
000003b0: 055c fd3d 6f66 edbd c0a5 4cbc 86ab 173e
000003c0: 3317 8e3c 35b0 f33d 9bfd d4bd d75e edbc
000003d0: ca6e 293e e37c a4be 8bf1 003d 8b00 8abe
000003e0: cbe7 bbbd 6ab4 06bd dbf2 fcbb 65ae 1d3e
000003f0: 7742 773e 3db6 34be 0b6e c7be c722 54bd

conv1.bias f4 [16]
0.065816045 0.029887676 -0.063847736 0.16536598 0.04302386 -0.0063034394 0.1806755 0.1042638
-0.0023483494 0.037013486 -0.0017800101 0.0113472575 0.1151526 -0.013169404 0.007873832 -0.003465412
00000000: 90ca 863d 00d7 f43c 9ac2 82bd b355 293e
00000010: c939 303d 158d cebb 0003 393e 4288 d53d
00000020: c4e6 19bb 749b 173d 3a4f e9ba d9e9 393c
00000030: 20d5 eb3d 7cc4 57bc 3f01 013c f71b 63bb

conv2.weight f4 [32, 16, 5, 5]
-0.120921955 0.041580748 0.0058712913 0.047742013 0.046065234 -0.13715878 0.13586242 0.13610895
0.08105734 -0.046136748 -0.113374576 0.05773946 0.09569935 0.15239227 0.096439674 -0.07501324
-0.01106868 -0.031980217 -0.010449568 0.07902228 -0.107300065 -0.15170687 -0.10899428 -0.14479324
-0.12961946 -0.012706193 0.11713988 -0.035913892 0.0066774893 0.16697936 0.013714902 0.19858746
0.04402943 -0.017662171 0.12478894 0.03130964 0.17490457 0.07233381 -0.019214146 0.076544166
-0.10692078 0.012151668 -0.010308237 -0.0032709339 -0.090907834 -0.22965941 -0.10669801 -0.10120875
-0.012900605 -0.06500845 0.051548347 -0.047620974 -0.12659964 -0.050470907 0.027469836 0.09019209
0.09607595 0.015843442 -0.0996713 -0.1574008 -0.017647816 0.10062319 0.042624645 0.028407848
-0.06148957 -0.03924535 -0.026105009 0.062100824 0.03630185 0.11105467 0.008982595 0.030444058
0.011634846 -0.020285415 0.017267214 0.009190034 0.12728524 -0.06279174 0.016204666 -0.013583816
-0.064240314 0.062698886 0.051258907 0.015533289 -0.07895528 -0.055729996 0.034790903 0.039324753
0.01882468 -0.0872751 -0.12432228 -0.015340253 -0.018027328 -0.015497636 -0.12412918 -0.09333669
-0.053333253 -0.01684738 -0.0042876634 -0.06176106 -0.008040654 -0.022789901 -0.0048768455 0.046279583
0.10631969 -0.011886508 -0.031054987 -0.035410922 -0.09735039 -0.13181148 0.008092841 0.046980586
0.053656247 -0.14205994 -0.12351026 0.014339204 -0.013465465 0.012360766 0.0021627008 0.028880702
-0.022124672 -0.04864967 0.010851114 0.058700643 0.08511244 0.018657941 0.025728576 -0.06292796
-0.083231784 0.055421244 -0.11994368 -0.056045633 -0.02050214 0.02154988 -0.10614546 -0.23437794
-0.04959029 -0.00026084323 0.054524466 -0.050001755 -0.1401953 -0.086491294 0.015448003 0.03324781
-0.0054897605 -0.06974479 -0.03756551 0.03282893 -0.015295427 0.08379033 -0.19093648 -0.18671377
-0.070981406 -0.04063297 -0.01705527 -0.19555971 -0.13663779 0.008723945 0.11105038 0.120422065
-0.11653749 -0.14279044 0.026477825 0.16507538 0.1857917 -0.03099435 0.03242035 -0.005320319
0.00043200343 0.020798607 -0.030197967 0.05560052 0.07547885 0.04464948 0.045688387 -0.18194154
-0.02744112 0.10372849 -0.0269842 -0.076306045 -0.137321 -0.016318725 0.016495777 -0.012835633
-0.051546846 -0.04121278 -0.06514938 0.002183018 -0.07874516 -0.12212113 -0.01191794 0.020090258
0.017626168 0.033339024 -0.0332355 -0.10969885 0.034756787 0.011029501 0.08548018 0.13952717
-0.0145271905 0.022156944 0.023475857 -0.0004948027 -0.09517953 -0.018502247 0.048702385 -0.025192367
-0.048742484 -0.09787514 -0.015681323 0.054668732 0.008408459 0.009473922 -0.052962147 -0.069676235
0.034827482 0.08605917 0.07909353 -0.009047348 -0.10573849 -0.07335543 -0.02695969 0.020724464
-0.037756596 -0.0077708773 0.0060882713 -0.0144114 -0.084509976 0.0431029 0.0075569856 0.033436038
-0.0703048 -0.06636067 0.073416546 0.026919385 0.0928542 0.014569412 -0.06632452 -0.09435986
-0.008257618 0.0846429 0.050269857 0.10953438 0.032467213 -0.058945965 0.033115756 -0.0076914416
0.07780642 0.15958089 0.02082772 0.003366074 -0.13909176 0.08320388 0.046115987 0.078892134
00000000: eea5 f7bd 9350 2a3d f663 c03b 218d 433d
00000010: e6ae 3c3d 5a73 0cbe 851f 0b3e 2560 0b3e
00000020: 6401 a63d e3f9 3cbd ee30 e8bd 3680 6c3d
00000030: 05fe c33d b80c 1c3e 2a82 c53d 8ba0 99bd
00000040: 6959 35bc b0fd 02bd aa34 2bbc 6fd6 a13d
00000050: 23c0 dbbd 0c59 1bbe 6538 dfbd ae44 14be
00000060: f7ba 04be a32d 50bc 09e7 ef3d 721a 13bd
00000070: d7ce da3b a3fc 2a3e 78b4 603c 835a 4b3e
00000080: 3458 343d 42b0 90bc 5891 ff3d 893e 003d
00000090: 2f1a 333e c023 943d fc66 9dbc 30c3 9c3d
000000a0: 48f9 dabd ca17 473c e1e3 28bc 2a5d 56bb
000000b0: e32d babd d62b 6bbe 7c84 dabd 8846 cfbd
000000c0: 0f5d 53bc 2623 85bd 5c24 533d 360e 43bd
000000d0: 56a3 01be 95ba 4ebd 6c08 e13c a1b6 b83d
000000e0: 78c3 c43d 1bca 813c 7720 ccbd ad2d 21be
000000f0: 2792 90bc 8813 ce3d 2e97 2e3d 93b7 e83c
00000100: 7ddc 7bbd bbbf 20bd 2cda d5bc 6f5d 7e3d
00000110: 40b1 143d a170 e33d bc2b 133c d165 f93c
00000120: 15a0 3e3c 992d a6bc f973 8d3c cc91 163c
00000130: 1057 023e f598 80bd a6bf 843c a78e 5ebc
00000140: 6d90 83bd 4668 803d dcf4 513d 567f 7e3c
00000150: 4eb3 a1bd 2345 64bd e880 0e3d fe12 213d
00000160: 3736 9a3c 4abd b2bd ae9c febd af55 7bbc
00000170: 0cae 93bc cce9 7dbc 7137 febd 4e27 bfbd
00000180: f873 5abd 8403 8abc 877f 8cbb 2af9 7cbd
00000190: f2bc 03bc e3b1 babc f2cd 9fbb a98f 3d3d
000001a0: 23be d93d a1bf 42bc 0767 febc 0b0b 11bd
000001b0: a45f c7bd 97f9 06be d697 043c b76e 403d
000001c0: a7c6 5b3d 2978 11be f2f2 fcbd fbee 6a3c
000001d0: 419e 5cbc cf84 4a3c 19bc 0d3b 3997 ec3c
000001e0: cd3e b5bc e044 47bd dfc8 313c 1670 703d
000001f0: 6e4f ae3d 8ad8 983c bcc4 d23c 60e0 80bd
00000200: 6d75 aabd 6301 633d 08a5 f5bd 1b90 65bd
00000210: 1bf4 a7bc 6089 b03c ca62 d9bd c500 70be
00000220: 301f 4bbd c9c1 88b9 0c55 5f3d a4ce 4cbd
00000230: 5b8f 0fbe 5922 b1bd 9f19 7d3c db2e 083d
00000240: 73e3 b3bb 5bd6 8ebd 4bde 19bd a177 063d
00000250: ac99 7abc 449a ab3d da84 43be e531 3fbe
00000260: b35e 91bd c26e 26bd 7eb7 8bbc ce40 48be
00000270: c7ea 0bbe e1ee 0e3c 626e e33d d89f f63d
00000280: 35ab eebd a837 12be 06e8 d83c 8509 293e
00000290: 2e40 3e3e dde7 fdbc 33cb 043d 1256 aebb
000002a0: 857e e239 d761 aa3c ba61 f7bc 5fbd 633d
000002b0: a894 9a3d 60e2 363d bf23 3b3d e24e 3abe
000002c0: 33cc e0bc 9a6f d43d f80d ddbc 5846 9cbd
000002d0: e09d 0cbe d9ae 85bc 2722 873c 8c4c 52bc
000002e0: c922 53bd bbce 28bd 0a6d 85bd f710 0f3b
000002f0: 2445 a1bd a51a fabd 7743 43bc 5394 a43c
00000300: c164 903c 808e 083d f321 08bd caa9 e0bd
00000310: 225d 0e3d 15b5 343c 3c10 af3d 36e0 0e3e
00000320: 7403 6ebc 7b82 b53c 7150 c03c a6b5 01ba
00000330: 7ced c2bd 0692 97bc 277c 473d 3960 cebc
00000340: 33a6 47bd c372 c8bd 1e76 80bc 52ec 5f3d
00000350: a2c3 093c 8238 1b3c d6ee 58bd 6ab2 8ebd
00000360: 43a7 0e3d ca3f b03d cafb a13d 543b 14bc
00000370: 6c8d d8bd 5f3b 96bd 91da dcbc 5ac6 a93c
00000380: a9a6 1abd d8a2 febb 1f80 c73b cb1d 6cbc
00000390: 9113 adbd ab8c 303d 97a0 f73b 3af4 083d
000003a0: f7fb 8fbd 1ae8 87bd 6a5b 963d 0b86 dc3c
000003b0: 582a be3d 8bb4 6e3c 26d5 87bd be3f c1bd
000003c0: f64a 07bc 4259 ad3d c4e7 4d3d 9053 e03d
000003d0: 57fc 043d 5371 71bd 63a4 073d 7d08 fcbb
000003e0: f958 9f3d 2c69 233e e59e aa3c 5a99 5c3b
000003f0: 126e 0ebe cc66 aa3d 1ee4 3c3d 3392 a13d

conv2.bias f4 [32]
-0.041070502 -0.03905265 -0.06942185 -0.02980839 -0.051179614 -0.021204272 -0.027348135 -0.0840765
0.014250363 -0.0657984 -0.024785925 0.034888178 0.013641829 -0.05203523 -0.036124337 0.019868242
0.013208252 -0.042496335 0.0077397786 0.007100021 -0.04852168 0.0072676605 0.01910745 -0.0018561631
0.021230917 0.011253223 0.026180144 0.0015068384 -0.012940901 -0.004613028 0.00822549 -0.013258693
00000000: 8b39 28bd acf5 1fbd 0b2d 8ebd ba30 f4bc
00000010: b7a1 51bd 95b4 adbc 3209 e0bc 4d30 acbd
00000020: 5b7a 693c 50c1 86bd da0b cbbc e8e6 0e3d
00000030: fa81 5f3c e522 55bd 1df7 13bd b9c2 a23c
00000040: 6d67 583c a310 2ebd f89d fd3b 4ba7 e83b
00000050: abbe 46bd 8e25 ee3b 3a87 9c3c 804a f3ba
00000060: 76ec ad3c 705f 383c be77 d63c 1b81 c53a
00000070: 1306 54bc e228 97bb 35c4 063c fd3a 59bc

fc1.weight f4 [64, 1568]
0.009875383 -0.021155333 0.0041721947 0.0201039 0.015817728 0.010807277 -0.014672841 0.01983523
-0.00050852593 -0.018703047 -0.0060714036 0.013223351 -0.028313244 -0.010903798 0.013710294 -0.012079673
-0.015319434 -0.011930766 0.0031520606 -0.02460968 -0.0019229401 0.0013719011 0.0015513386 -0.005634068
0.0073034433 -0.0066134874 0.014465122 0.011596987 -0.022570647 -0.010055393 0.0145168705 -0.007654728
-0.012847388 -0.0067040278 -0.010927127 -0.013929541 0.00047522658 0.016157081 -0.0014624887 0.009078004
0.01437693 -0.02155659 -0.023076715 -0.008838321 0.0024081974 -0.008182786 -0.01695334 -0.022501254
-0.004382526 0.018788867 0.0010893726 0.024055714 -0.01703858 0.023319274 -0.016190544 0.020064097
0.0027572168 0.025118668 0.02403203 -0.008641323 -0.0018467274 -0.011968177 0.0005377395 -0.012447783
-0.010960453 -0.015306793 0.015380174 0.0148368925 -0.0023387875 -0.005850524 -0.01894126 -0.028102227
-0.019485699 -0.023781516 -0.020778583 0.011840796 -0.024065275 0.012101977 0.016803654 -0.0001020315
0.005982709 0.015761921 -0.028014442 0.016818402 0.024868589 0.02409822 -0.009858431 0.010491291
-0.009288753 0.0039283424 0.01600568 0.00529092 0.00923529 -0.00672316 -0.015014737 0.015490552
-0.027908884 -0.0006906949 -0.0075404206 -0.012220912 -0.024670092 -0.020122653 -0.014414222 -0.0012991125
0.009850056 -0.028054142 -0.014805104 -0.029110432 0.012150033 -0.028325574 -0.008494994 -0.0036041879
-0.018945413 0.018142166 0.0056823455 0.00805379 0.012680635 -0.017728055 0.012218245 0.015305424
-0.010917145 -0.0071893036 -0.002732374 -0.029921025 -0.0078087705 -0.0030211583 -0.023478331 0.013354207
-0.027343296 -0.015231478 0.009753278 -0.0011978955 0.0051216492 -0.004029455 -0.028620945 -0.023257958
-0.013670651 -0.022126328 -0.020853706 -0.013293387 0.017429387 0.014453128 -4.656335e-05 -0.021320635
-0.020341698 0.019609315 -0.0019057962 -0.0022490416 -0.019423531 -0.0128932325 0.007298294 -0.0072894394
-0.0077587035 -0.017550988 -0.023827683 -0.021395583 -0.029977597 0.018004334 -0.0014166674 -0.0015865056
0.013844631 0.0075918613 -0.008804056 0.010512898 -0.0047190725 -0.029740231 0.015347435 -0.020001065
-0.01908395 -0.010955566 0.0010404903 0.014742036 -0.03012142 -0.028755775 -0.021951046 -0.019863661
0.019708356 -0.005514792 0.013205577 0.0019970236 0.009633009 -0.018216217 0.0058756 0.004045843
0.0035738044 -0.02408144 -0.013823773 0.016327364 -0.010647183 -0.023460051 -0.026503317 -0.010244934
0.00656659 -0.012571334 0.012889551 0.0056446465 -0.025293736 -0.0048353705 0.023023596 0.010617221
-0.014189126 -0.02386427 0.0024566073 0.012122779 -0.0051981 -0.021546176 0.019276196 0.0070844204
-0.030253854 -0.0038273775 -0.0056775087 0.018313901 0.008214946 0.0015764636 -0.012549054 -0.023735352
0.0028266085 0.010214831 -0.0045404937 0.017087802 0.009389332 -0.021107247 -0.0065032984 -0.016377334
-0.004060079 -0.0028132496 0.003101972 0.01548368 0.01233293 -0.003776537 -0.014589896 -0.017686667
0.008047952 0.009143509 0.016284566 -0.026410857 -0.024369365 -0.015112415 0.0111463005 0.014527115
-0.007135731 -0.021135956 0.0040190574 -0.021720298 0.01613306 -0.024070721 -0.0014482222 -0.004777239
0.007593078 -0.022601558 0.0062171025 -0.0044173854 -0.002024303 -0.022229595 0.018739 -0.009677952
00000000: 5ccc 213c f34d adbc e8b6 883b efb0 a43c
00000010: 2e94 813c 0111 313c 5b66 70bc 7e7d a23c
00000020: 994e 05ba 2237 99bc a0f2 c6bb c1a6 583c
00000030: 2df1 e7bc d8a5 32bc 24a1 603c d2e9 45bc
00000040: 5dfe 7abc 4279 43bc cd92 4e3b 3d9a c9bc
00000050: 2a0b fcba 5dd1 b33a 4956 cb3a fd9d b8bb
00000060: b951 ef3b f4b5 d8bb 1eff 6c3c 4a01 3e3c
00000070: 14e6 b8bc 60bf 24bc 2bd8 6d3c 83d4 fabb
00000080: da7d 52bc 76ad dbbb b107 33bc bb38 64bc
00000090: d527 f939 db5b 843c fab0 bfba e9bb 143c
000000a0: 378d 6b3c 7297 b0bc 610b bdbc 9bce 10bc
000000b0: d9d2 1d3b 1811 06bc bbe1 8abc 8d54 b8bc
000000c0: 4b9b 8fbb 1ceb 993c 47c9 8e3a 7d10 c53c
000000d0: 7e94 8bbc 1008 bf3c 08a2 84bc 765d a43c
000000e0: 6cb2 343b aac5 cd3c d2de c43c 5694 0dbc
000000f0: e40d f2ba 2c16 44bc 16f7 0c3a c9f1 4bbc
00000100: 7993 33bc 58c9 7abc 20fd 7b3c 7016 733c
00000110: 5846 19bb c1b5 bfbb b42a 9bbc a436 e6bc
00000120: 79a0 9fbc 74d1 c2bc d937 aabc e6ff 413c
00000130: 8a24 c5bc 5f47 463c d1a7 893c bff9 d5b8
00000140: 9a0a c43b 251f 813c 8b7e e5bc bfc6 893c
00000150: 36b9 cb3c a169 c53c 4285 21bc aae3 2b3c
00000160: db2f 18bc 53b9 803b 581e 833c 745f ad3b
00000170: 9d4f 173c f44d dcbb 5f00 76bc 16cc 7d3c
00000180: 2ca1 e4bc c00f 35ba a215 f7bb 383a 48bc
00000190: ef18 cabc 43d8 a4bc a129 6cbc fb46 aaba
000001a0: 2162 213c cdd1 e5bc 1b91 72bc 0079 eebc
000001b0: ef10 473c 090b e8bc 962e 0bbc 3d34 6cbb
000001c0: 6933 9bbc e19e 943c f832 ba3b 0bf4 033c
000001d0: 70c2 4f3c 6d3a 91bc 092f 483c 9ac3 7a3c
000001e0: d3dd 32bc 4094 ebbb a111 33bb f01c f5bc
000001f0: b7e0 ffbb a0fe 45bb a155 c0bc 9bcb 5a3c
00000200: 0cff dfbc 738d 79bc 37cc 1f3c b402 9dba
00000210: 82d3 a73b 8509 84bb 7976 eabc 7987 bebc
00000220: defa 5fbc 4642 b5bc 64d5 aabc 82cc 59bc
00000230: 13c8 8e3c d0cc 6c3c 044d 43b8 9da8 aebc
00000240: a2a3 a6bc b7a3 a03c e9cb f9ba a864 13bb
00000250: 191e 9fbc 233e 53bc 8726 ef3b 40dc eebb
00000260: b93c febb 17c7 8fbc 4632 c3bc ca45 afbc
00000270: 9493 f5bc d37d 933c 78af b9ba 4bf2 cfba
00000280: 97d4 623c 26c5 f83b e33e 10bc 4a3e 2c3c
00000290: 73a2 9abb c9a1 f3bc cf73 7b3c 46d9 a3bc
000002a0: f255 9cbc f97e 33bc 1061 883a 9588 713c
000002b0: 32c1 f6bc 3b91 ebbc aed2 b3bc 1eb9 a2bc
000002c0: 6b73 a13c 6eb5 b4bb 345c 583c 7fe0 023b
000002d0: c5d3 1d3c 2d3a 95bc 1b88 c03b fe92 843b
000002e0: 7d36 6a3b 7146 c5bc 1b7d 62bc f7c0 853c
000002f0: 8671 2ebc 4b2f c0bc 7c1d d9bc 5eda 27bc
00000300: 8d2c d73b fff7 4dbc b22e 533c baf6 b83b
00000310: cf34 cfbc 0772 9ebb fb9b bc3c daf3 2d3c
00000320: 8279 68bc 007f c3bc 08ff 203b 9f9e 463c
00000330: d354 aabb 9b81 b0bc 1de9 9d3c 6d24 e83b
00000340: eed6 f7bc bdd4 7abb 650a babb 0907 963c
00000350: fb97 063c 57a1 ce3a 8c9a 4dbc a470 c2bc
00000360: 9f3e 393b 1b5c 273c 6cc8 94bb b8fb 8b3c
00000370: b6d5 193c 1be9 acbc 9f19 d5bb c229 86bc
00000380: 690a 85bb 7f5e 38bb 744a 4b3b 43af 7d3c
00000390: 0f10 4a3c c77f 77bb 760a 6fbc a1e3 90bc
000003a0: 8fdb 033c a8ce 153c 3667 853c 955b d8bc
000003b0: 43a2 c7bc 109a 77bc f99e 363c 2303 6e3c
000003c0: dad2 e9bb 5025 adbc 4cb2 833b c4ee b1bc
000003d0: 7b29 843c f62f c5bc 46d2 bdba 638a 9cbb
000003e0: 5bcf f83b e726 b9bc d6b8 cb3b b7bf 90bb
000003f0: 2baa 04bb d71a b6bc 8882 993c 4690 1ebc

fc1.bias f4 [64]
-0.021464268 -0.016547421 0.052671403 0.019039266 0.010937804 -0.00038305082 0.02886533 -0.022313746
0.02951007 0.044052977 -0.0346687 0.011649598 0.00079266675 0.015771484 -0.0029802322 0.012143032
0.00016891194 0.013144217 -0.027430544 0.01735396 -0.008110375 0.022432255 0.021582255 0.03436978
-0.0027351677 0.015950792 0.009130064 0.0054681534 -0.027283635 -0.008414397 0.02922402 0.010181011
0.016609522 -0.028715031 -0.00066999014 -0.002673573 -0.0013754508 0.008319282 -0.025314981 0.04909711
-0.014263201 0.013431521 0.04025542 0.01840951 -0.030169481 0.033975057 -0.02491503 0.0028035075
0.022417152 -0.01537183 0.014087641 -0.026962237 0.016500097 -0.010435947 -0.00019334051 0.04340496
-0.014115996 0.003306205 0.013736217 0.0029751498 0.029027907 -0.001639404 -0.015029321 0.016207583
00000000: d5d5 afbc 758e 87bc f8bd 573d 3cf8 9b3c
00000010: 7a34 333c 36d4 c8b9 fc76 ec3c 51cb b6bc
00000020: 1abf f13c e570 343d c400 0ebd f5dd 3e3c
00000030: f7ca 4f3a 3333 813c 0050 43bb 91f3 463c
00000040: f41d 3139 d85a 573c 05b6 e0bc e429 8e3c
00000050: 61e1 04bc d9c3 b73c 45cd b03c 54c7 0c3d
00000060: 8040 33bb 3cab 823c 4496 153c 322e b33b
00000070: ee81 dfbc 8adc 09bc 3667 ef3c 41ce 263c
00000080: b110 883c c93b ebbc 47a2 2fba 1d37 2fbb
00000090: 7848 b4ba 994d 083c 5d61 cfbc 0d1a 493d
000000a0: 33b0 69bc e20f 5c3c dee2 243d 8acf 963c
000000b0: fd25 f7bc 6e29 0b3d 9b1a ccbc 0dbb 373b
000000c0: 2da4 b73c 21da 7bbc d9cf 663c e9df dcbc
000000d0: 362b 873c 89fb 2abc 73bb 4ab9 66c9 313d
000000e0: c746 67bc eaac 583b df0d 613c bbfa 423b
000000f0: efcb ed3c 45e1 d6ba 8b3d 76bc c4c5 843c

fc2.weight f4 [10, 64]
-0.048995603 -0.14207432 0.124206595 -0.033381857 0.113603905 -0.20846057 -0.16453038 -0.09391168
0.09551973 -0.026384559 0.053367812 -0.05457863 -0.12082046 -0.09695809 -0.004677906 0.086911045
0.0428661 -0.09153509 -0.04406418 -0.073039286 0.09666342 0.061540633 -0.062155545 0.0428664
-0.08727751 0.1511477 0.04145439 0.03573619 0.114454776 -0.025620941 -0.10337697 0.021032978
0.06594041 0.07912625 0.07518277 0.06900589 0.11015005 0.038612265 -0.00981403 0.099712454
0.08617948 0.12064251 -0.03511868 -0.03938069 -0.0472633 0.12677725 -0.03620858 -0.11783827
0.071494065 -0.03566255 -0.03092508 0.06954669 -0.12797174 0.07813441 -0.10365352 0.056729935
-0.19569406 -0.031835414 0.044303555 0.13775499 0.15547442 -0.08335373 0.070679165 0.020459393
0.01872279 0.11145444 -0.04297513 -0.042623535 0.057353318 -0.043809816 -0.044948876 0.0366938
0.048216425 0.042583328 0.29422596 -0.078758016 0.019352773 0.13824132 0.028666403 -0.12879877
-0.15772796 0.06855843 0.007948156 0.06757096 -0.11151116 0.13188557 0.099033006 0.08428407
-0.09499745 -0.048576113 0.1174449 0.06458305 0.052145228 -0.18651378 0.14213645 -0.0026680476
-0.07393348 0.10242233 0.04659374 -0.04746123 -0.015466683 0.014685604 -0.070003174 -0.15861641
-0.12980488 -0.017241664 0.12590225 0.09578118 0.1108406 -0.06815821 -0.13460056 -0.14128771
-0.16219318 0.05476129 -0.16725749 -0.026257442 0.024311015 0.060885407 -0.02298531 -0.1883219
-0.10060687 -0.037302908 0.14610097 -0.033520814 0.085348554 -0.16339514 0.007580187 0.09421324
-0.021313773 0.04033046 0.010715903 -0.16865435 0.10409852 -0.014149937 0.09355125 -0.029935038
0.09474908 0.07331609 -0.18901609 -0.050365277 -0.15938088 0.04089763 -0.045868743 -0.09209585
0.14356342 0.09569113 -0.10780891 -0.1370353 0.19020043 -0.26826972 0.14080043 0.050685477
0.1054738 -0.14386478 -0.003735376 0.030602066 0.050255645 -0.11071923 -0.07951721 -0.01655286
0.081433445 -0.08902839 -0.034872778 -0.11285411 -0.035455003 -0.15289012 0.027197206 0.027117189
0.10130686 -0.039175488 0.06981279 -0.14558828 -0.036045372 -0.121850036 0.14932376 -0.037930366
0.044531632 0.042057194 -0.16141824 -0.07267231 0.1201998 -0.08925691 -0.121737495 -0.053917386
0.11806211 0.08482413 0.096789286 0.06735347 0.14824781 -0.17365621 -0.018210234 0.038957007
0.022408376 0.090771966 0.04337965 -0.026398785 -0.11410004 -0.1299958 0.13366678 0.037266728
-0.11317259 0.11091411 -0.18216483 -0.04786374 0.1413203 -0.07959799 -0.16374767 0.109066494
-0.15579997 -0.034287695 0.004964939 -0.09424587 -0.05489842 -0.13785344 -0.17345144 0.115395874
-0.02884469 -0.0073069097 0.094557084 -0.106999025 0.09661065 0.06356551 -0.077933 0.04392136
-0.05907382 0.092816375 0.115763016 -0.09376058 0.018899327 -0.14643759 -0.02441896 -0.070598826
-0.10955535 -0.15921864 0.13628584 -0.03200485 0.02699974 0.08500149 -0.101291105 0.039322987
0.055709876 0.011762681 -0.20250924 0.116481215 -0.08059847 -0.099793114 -0.08932357 -0.050870135
0.11363157 -0.124652945 0.16247414 0.14627384 -0.1414687 0.03964171 -0.08287112 0.09281273
00000000: 9daf 48bd ee7b 11be 0760 fe3d 6abb 08bd
00000010: 2aa9 e83d b076 55be a77a 28be c454 c0bd
00000020: d99f c33d 6e24 d8bc 3598 5a3d d78d 5fbd
00000030: b870 f7bd f791 c6bd 1f49 99bb 6bfe b13d
00000040: 5d94 2f3d c076 bbbd a47c 34bd 9f95 95bd
00000050: 79f7 c53d 0812 7c3d d096 7ebd ae94 2f3d
00000060: 8dbe b2bd 76c6 1a3e 14cc 293d 1c60 123d
00000070: 4467 ea3d 02e3 d1bc 4eb7 d3bd 5a4d ac3c
00000080: c40b 873d f20c a23d 6df9 993d f652 8d3d
00000090: 5996 e13d e527 1e3d 06cb 20bc 0b36 cc3d
000000a0: de7e b03d 6c13 f73d 9bd8 0fbd a54d 21bd
000000b0: 2997 41bd e5d1 013e 734f 14bd 3155 f1bd
000000c0: 7b6b 923d e512 12bd 9856 fdbc 7f6e 8e3d
000000d0: 060b 03be ef04 a03d 4c48 d4bd a65d 683d
000000e0: 0664 48be da65 02bd a577 353d a50f 0d3e
000000f0: b034 1f3e 5cb5 aabd 3dc0 903d 759a a73c
00000100: 8960 993c 3a42 e43d b106 30bd 0496 2ebd
00000110: 50eb 6a3d ec71 33bd 501c 38bd 3d4c 163d
00000120: 967e 453d db6b 2e3d c9a4 963e e24b a1bd
00000130: b589 9e3c 228f 0d3e ced5 ea3c d3e3 03be
00000140: 7083 21be 5d68 8c3d fc38 023c a562 8a3d
00000150: f75f e4bd 030d 073e d1d1 ca3d 209d ac3d
00000160: 068e c2bd bff7 46bd f486 f03d 1e44 843d
00000170: 3c96 553d 78fd 3ebe 388c 113e 69da 2ebb
00000180: 706a 97bd ccc2 d13d 14d9 3e3d b566 42bd
00000190: f867 7dbc e39b 703c d35d 8fbd 576c 22be
000001a0: 92eb 04be 643e 8dbc 85ec 003e ec28 c43d
000001b0: 6600 e33d 8896 8bbd bbd4 09be baad 10be
000001c0: f815 26be 604d 603d 8c45 2bbe d919 d7bc
000001d0: e527 c73c fa62 793d b04b bcbc 75d7 40be
000001e0: fa0a cebd efca 18bd 7e9b 153e 1f4d 09bd
000001f0: 39cb ae3d 0e51 27be 3863 f83b dff2 c03d
00000200: 399a aebc 8d31 253d c191 2f3c bab3 2cbe
00000210: 9b31 d53d 23d5 67bc cc97 bf3d 533a f5bc
00000220: ce0b c23d bf26 963d 6f8d 41be d24b 4ebd
00000230: be34 23be 4684 273d dde0 3bbd c09c bcbd
00000240: 4a02 133e b6f9 c33d ebca dcbd fb52 0cbe
00000250: e7c3 423e a65a 89be fd2d 103e 939b 4f3d
00000260: a602 d83d 4a51 13be 36cd 74bb 2fb1 fa3c
00000270: ddd8 4d3d c3c0 e2bd ebd9 a2bd dd99 87bc
00000280: 94c6 a63d 8454 b6bd c2d6 0ebd 0e20 e7bd
00000290: 4439 11bd 3a8f 1cbe adcc de3c de24 de3c
000002a0: f979 cf3d 7a76 20bd 02fa 8e3d 1815 15be
000002b0: 50a4 13bd 838c f9bd 54e8 183e df5c 1bbd
000002c0: cd66 363d 2a44 2c3d d34a 25be 38d5 94bd
000002d0: 502b f63d 54cc b6bd 8251 f9bd 7ad8 5cbd
000002e0: 8cca f13d 46b8 ad3d 7639 c63d 9ef0 893d
000002f0: 46ce 173e efd2 31be a12d 95bc 6291 1f3d
00000300: c591 b73c a7e6 b93d dcae 313d 4442 d8bc
00000310: 48ad e9bd 9e1d 05be f2df 083e ffa4 183d
00000320: 08c7 e7bd f026 e33d 6b89 3abe c50c 44bd
00000330: 45b6 103e 4504 a3bd 78ad 27be 415e df3d
00000340: 078a 1fbe 4171 0cbd edb0 a23b fb03 c1bd
00000350: 2add 60bd 7429 0dbe 419d 31be ac54 ec3d
00000360: b34b ecbc cd6e efbb 25a7 c13d 4e22 dbbd
00000370: cedb c53d a22e 823d 569b 9fbd e2e6 333d
00000380: 64f7 71bd 8316 be3d 2915 ed3d 8c05 c0bd
00000390: c3d2 9a3c bcf3 15be 450a c8bc 1e96 90bd
000003a0: 8e5e e0bd 360a 23be 848e 0b3e 8517 03bd
000003b0: 8f2e dd3c 4315 ae3d b671 cfbd 2411 213d
000003c0: 0a30 643d 43b8 403c 955e 4fbe b48d ee3d
000003d0: d010 a5bd 5560 ccbd 47ef b6bd 345d 50bd
000003e0: abb7 e83d 0b4a ffbd 9f5f 263e cfc8 153e
000003f0: 2cdd 10be 595f 223d 55b8 a9bd 9a14 be3d

fc2.bias f4 [10]
-0.1174963 -0.013912527 0.0006815672 -0.03133056 0.05087453 0.049240347 0.04616502 0.10212127
0.116522424 -0.033186324
00000000: e6a1 f0bd 5ef1 63bc 33ab 323a 7954 00bd
00000010: d061 503d 3fb0 493d 8817 3d3d f524 d13d
00000020: 4fa3 ee3d 62ee 07bd
