Code/week4/models/20251117_110717_mnist_conv.pth (torch, 814487 bytes, 8 tensors)

conv1.weight f4 [8, 1, 3, 3]
00000000: 3714 933d 31f5 07bf 350f 3dbe f7e7 08bf
00000010: 17a9 9abe ee8e 993e 71e2 efbd fe56 ba3e
00000020: 5c6c a23e 4517 0b3f fb4d 0b3f 8a37 ff3e
00000030: 306e 363e b407 b3bd fd32 4a3e 9006 09be
00000040: 9b40 febe 29be bcbe 4fa5 693d 9dc2 683e
00000050: 8281 b13e 8b4e 4ebe 0563 353d 6fb7 ab3e
00000060: 53f3 30be 67a7 043f d6b7 bb3e 1d05 6dbe
00000070: ef44 563e f7b8 013d 4bee 03bf 5666 16bf
00000080: e9ae 89be 8d94 ad3e 6495 103e c050 95be
00000090: 1d67 f83e d23d 7b3e 5e28 f9bd 9087 40bd
000000a0: 9789 863e 2eff 9cbe 4658 8ebe c484 a13e
000000b0: 5e3b 953d 95d5 a33e fcd3 0c3f 7790 d43e
000000c0: 9a66 e13e 8b6f 2a3e 683e eb3e 20d8 9538
000000d0: 2cf8 67bd b752 8c3d c9c0 fd3e 41bf f63e
000000e0: cf2d 9a3e b12c c53e f5d4 6f3e 66fd 5e3e
000000f0: 1133 70be 6000 c53e 7cd6 ba3e 3645 773e
00000100: d9b1 bfbe bfc2 7d3d 76af 483e abba d1be
00000110: b328 be3e 13dc 97be 2d8d b4be 033b e63e
0.0718159 -0.5310851 -0.18462832 -0.5347895 -0.3020713 0.2999186 -0.11713112 0.36394495
0.31723297 0.5433238 0.54415864 0.4984706 0.1781547 -0.08741704 0.19746013 -0.1338141
-0.49658665 -0.3686383 0.057042416 0.22730489 0.3466912 -0.2014715 0.044283886 0.33538386
-0.17280321 0.51817936 0.36663693 -0.23146482 0.20924734 0.031670537 -0.5153548 -0.587499
-0.26891258 0.33902398 0.14119488 -0.2916317 0.4851617 0.24535301 -0.121659026 -0.047004282
0.26276848 -0.30663437 -0.27801722 0.31546605 0.07286714 0.31998888 0.5501096 0.41516468
0.4402359 0.16644113 0.4594605 7.14513e-05 -0.05663316 0.06851714 0.49561146 0.4819279
0.30113074 0.3851066 0.2342108 0.21776351 -0.2345698 0.3847685 0.36491764 0.24147496
-0.37440374 0.061953302 0.19598183 -0.4096273 0.37140426 -0.2966009 -0.3526396 0.44966897

conv1.bias f4 [8]
00000000: 89f3 813e 80de 033d 5a2c edbb d823 c13e
00000010: 3635 8ebb 19a4 95ba 1161 8f3d 30d5 b73d
0.25381115 0.032194614 -0.007237953 0.3772266 -0.0043398393 -0.0011416703 0.07000936 0.08976209

conv2.weight f4 [16, 8, 3, 3]
00000000: 64bc 2e3c 9baa 7b3b 5458 003b cd6a abbd
00000010: a16d 50be ec73 f9bd b7b5 5f3d d38f 23be
00000020: 5d0e fcbd f36e 13be 9dc1 3f3d e1b3 e5bc
00000030: 7440 d8bc e071 12be 9b98 0abe f9f0 a2bb
00000040: 0a5e 31be 460e 62be eb00 85bd 0117 5a3d
00000050: 4059 4dbc 40f1 6ebc a4dc cabd ba95 92bd
00000060: d162 b2bd 8b1d 9d3d 6421 eb3d 265b 99bc
00000070: e818 60bd d77c fdbd 7333 2e3d 2a2f 8ebd
00000080: 7ec4 9bbd 9de1 c3bc a0b1 0cbe 43f2 fdbc
00000090: d5a7 293e e6d6 c73d 2b04 0d3e 290e b73d
000000a0: ce97 c43d 5268 543e a48f bdbd ac69 d63d
000000b0: 07b5 583e 4278 993c d747 073e 99a2 80bd
000000c0: af65 80bc 1e13 e23d 2e70 023d 4cb7 103d
000000d0: 54b1 a23d 9f44 923d c1b0 373d 1943 4b3b
000000e0: 601a eb3d 6e68 c33d 3d91 823d 9259 c7bd
000000f0: e6ea 4f3d 36d0 b93d c20f 7ebb 1777 343e
00000100: 8461 763e de88 b63d 0d60 753d b442 e23d
00000110: 0709 79bd dd37 183d 2185 97bd 83e8 403d
00000120: dfa7 893d 858d 3a3e 4385 c53d 80ce 05bc
00000130: 78a0 02bd 6974 be3d aa50 883c 690a 10bb
00000140: da41 bc3c 3be2 5fbe 4a36 a5bd e31c fd3d
00000150: a9dc aebd 0b8f 323e 4b74 103e d826 5b3e
00000160: e9a3 1c3e 23e3 863d 2b3d b43d ab06 c13c
00000170: 9b67 54bd a60e a5bd fc6f 1ebe 12c8 c0bd
00000180: 1c9d 3dbd 54f9 37bc bdbc 793c 3ab7 773d
00000190: 5df8 cebb c7b0 ebbd ef4b 7abd b4d7 1dbe
000001a0: af20 60bd f519 ddbd d8cf 72bd 3aa7 113a
000001b0: ffd6 87bd 5522 86be 2f84 a2be 6628 92be
000001c0: 0737 70bd 9b0a 66bc 7abb d13c 075b 7a3e
000001d0: 8bbd 363e 665d 2fbe 46d1 713d 71db fc3d
000001e0: 4a1e 7bbd a8dc 3abd dbd0 1c3e 5a23 173e
000001f0: 141a 043e b409 83bc 1c9a a9bc 6bf5 4ab9
00000200: 9bf1 cbbd dfcd b3bd eb0a e83d c898 67bd
00000210: ce48 0bbd f32e 283d caa2 f93d 6870 133e
00000220: b2a3 82bd 9266 cbbd 07d2 b1bd f45b 9b3d
00000230: b92f a8bb 9260 8abe c101 50bd 8a6c a83c
00000240: 2a37 3d3d 11ee 62b9 acc8 07be 0826 d7bc
00000250: b225 b4bd 5eaa f5bd 437a 4fbd 69a2 e6bd
00000260: 75fd 3a3d 4bea ec3c 98fa 00be ea85 e0bd
00000270: 6f36 4ebd 6d43 bb3d 03af 09be 1c94 693d
00000280: 2ba0 843c bb0d 23be 7237 38bd 21a4 13bc
00000290: f3b3 09be 610c 2c3c 2c8f a8bc b5a8 4b3c
000002a0: 2944 c5bd 9847 ea3d fdaa 833d 15a3 1cbe
000002b0: 3890 343d c836 2ebd 400a 3dbc 195a ec3c
000002c0: 0fc9 18be 4c5f 343c 2a25 4dbd 3a00 f1bd
000002d0: 5b9e d6bb 8719 893e 2a41 5d3d 55e9 8e3c
000002e0: d241 143e c842 463e daa1 4bbd dc29 613c
000002f0: 15ce cc3d aff6 f83c df83 85bc d28a 59bd
00000300: c3ae 17bb 3a4f d4bd 5aa0 f3bb 979e 9d3d
00000310: bd5f a73c 54d0 a3bd a4a6 273d f689 723d
00000320: 811a 18b9 b3fb 8e3d f650 833d b039 a63d
00000330: c18c 3dbb 3007 bc3d 9f80 f23d cb38 473e
00000340: 90f8 a23d cd96 103e 3d56 8b3b 40bb 333e
00000350: 5ebf 493e 2fe1 d63c c181 3bbd d8ab a53d
00000360: 7889 aabd 4bca bbbd 1586 d4bd 608e 8dbd
00000370: 2814 cabc 5fa4 30be cc21 00be b884 c03d
00000380: 6223 0a3d 2024 c9bc a8d5 bc3d 5a9f 1b3e
00000390: dd38 183e f13f 513e 2984 213e 998c 503d
000003a0: 60a1 7dbd 0f28 173e d25b a7bd a74c 37be
000003b0: c27d 023d 7ee3 a0bc 2ba3 1cbe ed92 d63d
000003c0: 0891 cdbd 29d8 1ebe 0b0f 913d 60d0 94bd
000003d0: 5438 2fbc 6166 15be cada 8bbc 8a17 aa3d
000003e0: 0270 d3bd 92aa 453e 3722 303d ccdc ba3d
000003f0: c1f2 97be b142 7dbe 6bea 91bd 9533 023e
0.010665033 0.003840125 0.0019583898 -0.0836998 -0.2035432 -0.121803135 0.054616656 -0.15972833
-0.12307427 -0.14397793 0.046815503 -0.028039875 -0.026397921 -0.14301252 -0.13534777 -0.004972574
-0.1732103 -0.22075757 -0.06494316 0.053244594 -0.012533486 -0.014583886 -0.09905365 -0.07157464
-0.08710254 0.076716505 0.11480978 -0.01872022 -0.054711252 -0.12377327 0.042529535 -0.069425896
-0.07605837 -0.023911292 -0.13739634 -0.030999308 0.16567929 0.097577855 0.13771121 0.08938248
0.09599267 0.2074292 -0.09255913 0.10469374 0.21162806 0.018734101 0.13210998 -0.06281013
-0.015673487 0.110388026 0.031845264 0.035331056 0.07943979 0.07141995 0.0448463 0.0031015335
0.1147964 0.09541403 0.06375358 -0.09733881 0.050761126 0.09072916 -0.0038766717 0.17623554
0.24060637 0.08912824 0.059906054 0.11047879 -0.060799625 0.03716265 -0.07398439 0.04709674
0.06721472 0.18218048 0.09644558 -0.008166909 -0.031891316 0.09299547 0.016640026 -0.0021978861
0.02298062 -0.21863644 -0.080669954 0.12359025 -0.08538181 0.17437379 0.14106862 0.21401536
0.15296902 0.06586292 0.08800729 0.02356275 -0.05185662 -0.080594346 -0.15472406 -0.094131604
-0.04629241 -0.011228878 0.015242753 0.060477473 -0.0063162283 -0.11508327 -0.061107572 -0.15414315
-0.05471867 -0.107959665 -0.059280246 0.000555623 -0.06632804 -0.26198068 -0.31741473 -0.28546447
-0.05864623 -0.0140406145 0.025602091 0.24448787 0.17845742 -0.17125472 0.05903747 0.123465426
-0.061308183 -0.04562059 0.15314047 0.1475958 0.12900573 -0.015995838 -0.020703368 -0.00019355647
-0.09958192 -0.08779501 0.113302074 -0.056542188 -0.03400498 0.0410604 0.12189253 0.14398348
-0.06378879 -0.09931673 -0.08682638 0.07585898 -0.005132642 -0.27026802 -0.050782923 0.020559568
0.046195187 -0.00021641726 -0.13260144 -0.026263252 -0.08796252 -0.119953856 -0.050653707 -0.11261446
0.04565187 0.028920313 -0.12595594 -0.10963042 -0.05034488 0.0914372 -0.13445668 0.057026014
0.016189655 -0.15923207 -0.04497475 -0.009011299 -0.13447551 0.010500998 -0.020576082 0.01243036
-0.09632141 0.11439437 0.06429098 -0.15296586 0.04408285 -0.042532712 -0.011538088 0.028851556
-0.14920448 0.011009049 -0.05008427 -0.11767621 -0.006549639 0.26777288 0.054017223 0.017445246
0.14478233 0.19361413 -0.0497149 0.01374289 0.100002445 0.030391065 -0.016298233 -0.053110905
-0.0023144938 -0.10366674 -0.007434887 0.07696264 0.020431394 -0.0799872 0.040930405 0.0592136
-0.00014505723 0.069816016 0.064119264 0.08116472 -0.0028923007 0.091810584 0.11840939 0.19455259
0.07957566 0.14120026 0.0042522238 0.17551899 0.19701907 0.026230423 -0.04577804 0.08089417
-0.08327001 -0.09169444 -0.103771366 -0.069119215 -0.024667814 -0.17250203 -0.12512892 0.09400314
0.03372515 -0.024553359 0.09220439 0.15197507 0.14865442 0.20434548 0.15773071 0.050915334
-0.061921477 0.14761375 -0.0817181 -0.17900334 0.031858213 -0.019639727 -0.15296619 0.104772426
-0.10037428 -0.15512146 0.07082947 -0.07266307 -0.010694582 -0.14589836 -0.0170721 0.08305271
-0.10324098 0.19303349 0.04300138 0.09124145 -0.29677394 -0.24732472 -0.0712479 0.1271499

conv2.bias f4 [16]
00000000: 9e71 95bd da3a 8a3c 738f 37bd 2345 a53d
00000010: e31c 97bd 8f5d 6c3c 5e5c c03d b44a 95bd
00000020: ff4e 493d 25ac 023d ca87 62bd 4c22 303d
00000030: 116e c8bd 5df2 c4bc 4665 f33c be55 5b3d
-0.072970614 0.016873766 -0.04481454 0.080698274 -0.073785566 0.014426603 0.09392618 -0.07289639
0.049147602 0.03190245 -0.05530528 0.043001458 -0.097866185 -0.024041349 0.029711377 0.053548567

fc1.weight f4 [64, 3136]
00000000: ad7c 54bc 66ad d4ba d981 6ebc 00df 803b
00000010: 0369 49bc b59d 843c c375 1d3b 7bc1 c03b
00000020: 648b 48bc 17e9 3a3c 7339 403c 360e 02bc
00000030: 3b91 88bc 9cdf b03b 42b5 ac3b 2a64 96bc
00000040: 2a3e 71bc e185 2237 f6e8 933c 8461 b8bb
00000050: 310e 993b 1566 cabb 3a2e 133c 0e8f aebc
00000060: 77d0 203c 6c43 813b 8ef8 27bb ad11 24bc
00000070: 5b18 89bc d01b b4bc f2ab 4bbc db82 2bbc
00000080: d46b 5e3b 3d3f 1a3c cd31 bc3c 6b20 aaba
00000090: 0443 db3b b1d0 27bc 6a19 09bc 6f76 1a3c
000000a0: 9169 8e3a 7634 03bc 5ac4 8f3b de5d 89bc
000000b0: 060d b1bc ee20 2ebc a89d 993a d3f7 a3bc
000000c0: 47eb 723a dd50 02bc 55ce 92bc ad60 3b3c
000000d0: c35a 2cbc 95aa e33b af7f 993c 5b50 24bc
000000e0: c41e 1ab9 4571 69bc dcc5 32bb de33 b6bc
000000f0: 0e07 b2bc 8539 88bc 2cdc babc fa69 88bc
00000100: 7fd4 09bc d9be 2dbc d45f 2c3b cbab 20bc
00000110: 756d 7cbb f66f 983b 4c3c c23b 45f4 3cbc
00000120: 714c 7bbc 164a 8ebc aa7d 52bb 25ea c2bc
00000130: 7a48 dfb9 ba60 c1bc 714b 82bc ef88 a53b
00000140: 5785 133c ab4b cf3b e98f d239 1183 993a
00000150: ff20 60bc 5757 3ebc 6345 b83b 5918 9bbb
00000160: 6926 18bc eee1 bbbb 6e0b 843b 93f1 a93b
00000170: 06db 293c 7849 9a3b d298 99bc 5957 f1bb
00000180: 99ba 55bc 62cf 8e3b 5fe3 87bb 1f01 1bbc
00000190: 0a8d da3b 3733 81bc 221f 92bc 25fe 3f3b
000001a0: d4bb 8ebc 9d3c 5abc 89a9 fa3a dc0c c33c
000001b0: f0f0 da3b 7c54 57bc 006f 6f3c 2402 7b3b
000001c0: f57a 16bc 48f1 adbb 21c8 dabb 2840 803c
000001d0: 1b1e cfbb 8702 163c 81a5 8cbc 26d0 74bc
000001e0: d130 203c 545b b8bb d16d bd3c 77fc f73b
000001f0: f2f1 14bc 5ce4 c939 44c0 403c db46 1a3c
00000200: 3405 74bb 9e78 afbb 1eef 2d3b 677d 58bc
00000210: 7d5d aabc ebc5 95bb eb17 8abc ee37 ab3c
00000220: 6e3b ae3c 1521 513c d777 673c 9ee7 2abb
00000230: 680b 1dbc d22b 793c 68ff 8c3c c2e1 0b3c
00000240: 827b 9e3c 8b6b 1bbc 70fd 46bc 60b2 c73a
00000250: 3382 72bc 62b1 e0ba a865 953c 9544 b03c
00000260: f3f3 16ba 393c 573b ea9b 0ebc bee2 17bb
00000270: ff17 193c 60d9 aa3b 9cb2 413c 80ec 273c
00000280: 4a5d 8cbc e458 98bc 8356 f1b9 4e2b 6f3c
00000290: 7b2f 4cba c723 80ba e89e a1bc 990f 6a39
000002a0: 6a5f 9fba 4a1f c2bc 0557 1fbc cdbd c13b
000002b0: 000c 04bc e794 e73b 7300 963b 2051 87bc
000002c0: 3f14 20bc 4723 0abc b076 a3bb fedf b4bc
000002d0: 9941 9dbc 708e ebbb 642b 93bc 92a4 56bc
000002e0: 1cc7 da3b 1c2c 60bc 7204 f2ba 997c 8cbc
000002f0: 9893 83bc 0d4c b0bb b7b2 02bc 2ce7 97b8
00000300: e188 293c f3f6 88bb a028 acbc d0cb ce3b
00000310: de5c 16bc 0ac1 7bbc dcc3 a9ba 5546 0e3c
00000320: 2e54 613c dcf1 71bc 75ed 1c3c e818 683c
00000330: 9acb 50bc ee31 7b3c c30f 303c 6531 2bbb
00000340: 937b a03b 01c9 50bb 4549 293c 6e5f 67b9
00000350: 8552 edbb 639c 333c c820 75bc 24ae 17bc
00000360: 5dc7 803c 0880 033c 3dfd 8939 da5f 00bc
00000370: 811a 75bb 5afd 7c3c 2c35 133c 20b2 913b
00000380: a579 8a3b f71b c4bb 3ee4 16bc 93bc 58bc
00000390: 9e05 e03b 417f ba3a f249 0b3c 3721 99ba
000003a0: 3d31 b63c 111e c83b dcba 963b 32b1 d4bb
000003b0: 8a78 203c 254e 543c 4c55 903c 5e02 1dbc
000003c0: b377 d2bb 0762 a43c e7d2 ba3c c433 a73c
000003d0: 68cc b83c e23e fbba 0791 8cbc a9a9 56bc
000003e0: 4822 20bb af44 c93b 42b7 873c aaa7 d8bb
000003f0: 0a6d d63b 0108 c43a 95b8 3e3c 2666 3dba
-0.012969178 -0.0016225993 -0.014557325 0.0039328337 -0.012293103 0.016188482 0.002402649 0.0058824397
-0.012240265 0.011408112 0.011732447 -0.007937958 -0.016670814 0.00539775 0.005270631 -0.018358309
-0.014724294 9.687124e-06 0.01805542 -0.005626859 0.004670881 -0.00617672 0.008983189 -0.021308448
0.009815327 0.003944805 -0.0025630328 -0.01001398 -0.016735246 -0.021985918 -0.012431132 -0.01046821
0.0033938782 0.009414491 0.022972966 -0.0012979632 0.0066913385 -0.010242627 -0.008367876 0.009427651
0.0010865201 -0.008008113 0.0043874206 -0.016768392 -0.021612655 -0.010627968 0.0011719959 -0.020015633
0.00092666264 -0.00795385 -0.017920652 0.0114366235 -0.010519686 0.006947825 0.018737642 -0.010028924
-0.00014698046 -0.014248197 -0.0027278578 -0.02224153 -0.02173188 -0.01662899 -0.022810064 -0.016652096
-0.008412479 -0.010604584 0.0026302235 -0.009806584 -0.003851739 0.0046520187 0.005927598 -0.011532848
-0.015338049 -0.017369311 -0.0032118359 -0.02379329 -0.00042587874 -0.023605693 -0.015905114 0.005051724
0.009003959 0.006326159 0.00040161543 0.0011712034 -0.013679742 -0.011617503 0.005623506 -0.004733127
-0.009286501 -0.00573372 0.004029683 0.0051862686 0.010367161 0.004708465 -0.018749628 -0.007365149
-0.013044977 0.004358218 -0.004146978 -0.0094607165 0.006669645 -0.015771491 -0.01783711 0.002929577
-0.017423548 -0.013320115 0.0019124012 0.023809843 0.006681554 -0.013142701 0.014613867 0.0038300836
-0.009184589 -0.005308304 -0.0066766893 0.015655592 -0.0063207275 0.009155876 -0.017168762 -0.014942205
0.009777264 -0.0056261215 0.023123654 0.007567938 -0.009090887 0.00038507849 0.01176459 0.009416307
-0.0037234547 -0.005354955 0.002654023 -0.013213492 -0.020796532 -0.004570713 -0.016857108 0.020900693
0.021268573 0.012764235 0.014127693 -0.0026077996 -0.009585239 0.0152082015 0.017211631 0.008537712
0.019346002 -0.009486089 -0.012145385 0.0015235655 -0.01480155 -0.0017142708 0.01823695 0.021517077
-0.0005758397 0.0032842292 -0.008704165 -0.002317592 0.0093441 0.0052139014 0.011822369 0.010249257
-0.017134327 -0.018597074 -0.00046031558 0.014597727 -0.00077890576 -0.0009776287 -0.019729093 0.0002232179
-0.0012159173 -0.02369656 -0.009725337 0.0059125186 -0.008059502 0.007067311 0.0045776903 -0.016518176
-0.009770452 -0.008431262 -0.004988514 -0.022079464 -0.019196318 -0.0071886107 -0.017965026 -0.01310076
0.0066765677 -0.0136823915 -0.001846446 -0.017149257 -0.01606159 -0.0053801597 -0.007977179 -7.2433e-05
0.010347576 -0.0041798293 -0.021015465 0.0063109174 -0.009177415 -0.015365848 -0.0012952047 0.008683761
0.01375298 -0.014767136 0.009578099 0.014166094 -0.012743855 0.015331728 0.010745945 -0.002612197
0.0048975437 -0.003185809 0.01033241 -0.00022065427 -0.007242503 0.0109625785 -0.014961429 -0.009257827
0.015720064 0.0080261305 0.00026319353 -0.007835353 -0.003739983 0.015441263 0.008984845 0.004446283
0.004225927 -0.005984779 -0.009209691 -0.013228553 0.006836607 0.0014228598 0.008501517 -0.0011682872
0.022240276 0.0061071 0.004599912 -0.00649085 0.009794364 0.012958084 0.017618798 -0.009583084
-0.0064229607 0.020066274 0.022805644 0.020410426 0.022558406 -0.0019168521 -0.017158998 -0.013101974
-0.0024434496 0.006142221 0.016566876 -0.006611784 0.00654376 0.0014955999 0.0116406875 -0.0007224999

fc1.bias f4 [64]
00000000: 38bc 3e3c fa07 1cbc 2c58 29bb fc8d ef3c
00000010: bc21 c1bc cfdc acbc 6129 31bc 5c9e df3c
00000020: 3a1b 9ebc 61da 843c 3eba 0c3b 10b8 90bb
00000030: ff07 b83c f0de b039 60d3 393b 250e 4e3d
00000040: fdb0 563c b0bd 05bc 2d9f abbb 3408 56bc
00000050: 9e65 0ebc 47a2 93ba 830a 6fbc 4172 34bb
00000060: 5053 773c 7284 e73b 9ed9 bcba 75c1 acbc
00000070: c749 2a3d 8e09 843b 1d34 85bc bdd9 a93b
00000080: eaff 123b ddad 0abd 1eb6 f6bb e94d a4bc
00000090: 836f 9f3a 5ec6 b1bc 3802 47bc 3895 b3bc
000000a0: c186 1f3c 40e8 123c e44d 773c 6d81 3d3b
000000b0: ead5 ed3b 987a 05bc 9edb ff3c 6503 49bc
000000c0: d213 1b3d 780d d23c 5eba f1bb d77a 1f3c
000000d0: af92 403c f1be 7fbc 0afe e3bb c5f5 8e3a
000000e0: 40be 28bc d5c0 b1bc 7d67 853c 4ad2 2d3d
000000f0: 9fb4 82bc 7b41 9bbc 9039 9ebc eee5 f03c
0.011641555 -0.009523386 -0.0025839908 0.029242508 -0.023575656 -0.021101383 -0.010813088 0.027297191
-0.019300092 0.016217412 0.0021473314 -0.004416473 0.02246475 0.00033735437 0.002835475 0.050306458
0.013103721 -0.008162901 -0.005237481 -0.013063479 -0.00869122 -0.0011263572 -0.0145899085 -0.002753392
0.015095547 0.0070653493 -0.0014408117 -0.021088341 0.041574266 0.0040294593 -0.016260201 0.005183427
0.0022430369 -0.033857215 -0.0075290343 -0.020056682 0.001216397 -0.021701034 -0.012146525 -0.021921739
0.009736718 0.0089665055 0.015094254 0.0028916255 0.0072581666 -0.008146904 0.031232651 -0.012268876
0.0378607 0.025641188 -0.007376953 0.009733877 0.011753722 -0.015609489 -0.006957774 0.0010906985
-0.010299265 -0.021698395 0.016284699 0.042436875 -0.015955267 -0.018952122 -0.019314557 0.029406514

fc2.weight f4 [10, 64]
00000000: 6de7 05bd a2fe 04be d77a 6a3d ec81 6cbe
00000010: 65b7 8fbd ad69 94bc c236 093d c635 bcbc
00000020: d40f 64bd 8f52 1e3d ecab 903d fb0f 21bc
00000030: 9b75 45be 5ee4 16bc 1e4f b13d 1793 8a3c
00000040: e36a 28bd 2fe4 a03c 78bc 53be 873d 2dbd
00000050: 85f3 ee3d 2785 b2bd 6b70 4a3a e7c9 043d
00000060: 1ed2 bbbd b544 ff3c 5d74 353e 371c a7bc
00000070: eb17 0e3e f5e4 ee3d 5246 5cbd 10ec b93d
00000080: bc06 553c 076c be3d 4a3c 00be 4176 573d
00000090: c43a 173d df65 e93c 945c 9dbd 41fa f2bc
000000a0: c20a 81bc b9cf 1bbd 4533 da3d cca0 93bd
000000b0: 63c7 c33d 148b 5ebd ff03 3bbd f296 433e
000000c0: 7ab4 963d 38af b33c 163e b13d 10cc b53d
000000d0: b184 febc 715e f6bd ae62 a83d 0dda b6bd
000000e0: 0702 d3bd cb05 053e bcac e33d aefe e6bd
000000f0: 0522 b4bd 5e3c 9c3d b1e0 88bb 34a2 54be
00000100: d31e 58bd 4300 373d a82b 99bc cbdb 003e
00000110: b75c 85be 6b71 7bbd c374 8ebd b877 41be
00000120: 4712 883c cbd6 f33c 4951 13bd da86 27be
00000130: 6ab1 1c3e d71f 71be 007c d1bd d1b8 283c
00000140: cdad c93d 1db1 babd 3ada 60be ee25 30bd
00000150: 83b9 afbd ef7c 55bd 1f38 c5bd 95d5 e3bd
00000160: 4204 ef3d fcc5 5ebd cc2e 253e 1ceb 84bc
00000170: a9a0 afbd 0204 853a d9b9 133d f16f 713d
00000180: ec96 12bc c799 59bc c0b1 a83c a132 62bd
00000190: b7f1 9abd 51fe e3bd 779b ab3c 39b9 773d
000001a0: 8e4c e33d 27c5 f0bd 3eca b03d 4796 373e
000001b0: 137d ca3a 764c d0bd 9cd7 1e3e f72a a0bd
000001c0: 6968 9a3d 6630 c0bd fce6 9b3b d1ef 8ebd
000001d0: adfe a5bd 5772 05be d0b6 9bbe a712 c63b
000001e0: 3c6f b93d 3eec da3b 7588 893e 309f 183e
000001f0: d97f fb3c b956 1d3d 7cbb 983d ea6a c93d
00000200: 6ecc a63d dd87 66be df0b f7bd a89e d03c
00000210: 3f40 833c 26df 39bd ff6a 29bc ddfc e23d
00000220: ad71 8c3d 56ed 9ebc d17f e2bc 80e8 d1bd
00000230: 4af7 cd3b aae3 98bc 875e 4a3c a8bf 41bd
00000240: f222 063e 296d 4b3c 6cb6 77bd 4eb3 c5bc
00000250: 72b9 16bd e48f 873d fc00 e4bd e9c6 d33c
00000260: a56a 5a3e 4789 af3d 6fc9 013e 401a eabb
00000270: d352 183e 79c1 a83d 545c b23d 84a1 c9bd
00000280: 6e32 d03d afb4 1f3d e9ef b3bd 36c2 88bc
00000290: ce21 62be 640e cabd 44de dabb 3b20 28bd
000002a0: 2470 6e3d ef18 ed3d d69e 70be 1adf 7dbe
000002b0: 0301 acbd cac7 1ebd 4073 0abe 543d 3cbe
000002c0: d3c2 193e 0dc9 2b3c dc13 143e e074 9a3d
000002d0: b113 f13d 7d68 0d3e bcbd 313e cf01 ea3c
000002e0: 19f6 bb3b 873b 033d 1192 c7bd 2676 90bd
000002f0: c84f b13c ffad 49bd e0c6 f13d 54a8 ccbd
00000300: 1a77 d43d c7e4 823d f6a0 60bd a1f0 3cbe
00000310: 3b3e 583d 1029 94bd e4fb 1abb fe9f 45bd
00000320: ed1f efbd 7924 c6bd ead7 623d 3bbd 5e3e
00000330: bfca 9bbd b7cf fd3d 3ea2 a63d 43e1 cb39
00000340: e945 2a3e b3be e33d 0f95 1dbe 8fb5 c83a
00000350: 385a 4a3d 82fa 343e 783d 90bb 0802 c43d
00000360: 5d29 09be 67f0 a33d 6b6f 21be c378 1a3d
00000370: 9840 f0bc 24cb cf3b 4c08 4e3d 0705 a03c
00000380: 5be0 f0bb 7e32 803d 7da5 cf3d ee6d 903d
00000390: 907c 4dbe 6162 ecbd 17e7 943d d1d9 51bd
000003a0: b2aa 6dbd 275c 21bd 745b a7bd fdec 83be
000003b0: f1c7 c13d de4c 89bd 39c0 c33d 5575 c2bd
000003c0: 3c91 c7bc 135d 563c 6186 38be e612 bb3d
000003d0: f788 5a3c 4a20 963a 2f3c 1cbe 31d4 c4bd
000003e0: 6e4e d53d 7b4f a4bb c0c1 4bbe 0498 5c3e
000003f0: 539e 523d cc3c 37bc 2788 0a3c ec5a 053e
-0.032691408 -0.1298776 0.057246055 -0.23096436 -0.070174016 -0.018116796 0.033499487 -0.02297486
-0.055679157 0.038652953 0.070640415 -0.00983047 -0.19283144 -0.00920972 0.086576685 0.016915841
-0.04111756 0.019640056 -0.20677364 -0.042295005 0.116675414 -0.08716803 0.000772244 0.03241911
-0.09170936 0.031160692 0.1772017 -0.020399196 0.13876311 0.11664764 -0.053778 0.090782285
0.013002094 0.09297948 -0.12522998 0.05260301 0.036921278 0.028490959 -0.076836735 -0.029660346
-0.0157522 -0.038039897 0.1065431 -0.07208404 0.095595144 -0.054331854 -0.045658108 0.1910055
0.07358642 0.021934137 0.0865442 0.088768125 -0.031069132 -0.12029732 0.08221947 -0.08928309
-0.10303121 0.12990491 0.11116931 -0.11279045 -0.08795551 0.076287016 -0.004177176 -0.20765
-0.05276377 0.044677984 -0.018697575 0.12583844 -0.26047298 -0.06138746 -0.06955864 -0.18893325
0.016610278 0.029765507 -0.03596619 -0.16360036 0.15302053 -0.23547302 -0.10228729 0.01029797
0.09847603 -0.09115813 -0.21958247 -0.043004923 -0.085803054 -0.0521211 -0.09629845 -0.11124722
0.11670734 -0.05438803 0.16131133 -0.01622539 -0.08575565 0.0010148289 0.03606591 0.058944646
-0.008947115 -0.013281292 0.02059257 -0.055224065 -0.07565635 -0.111324914 0.020948155 0.060479376
0.11098586 -0.11756354 0.08632325 0.1792842 0.0015448652 -0.10170834 0.15511936 -0.07820695
0.07539446 -0.09384231 0.00475776 -0.06979335 -0.08105216 -0.13031898 -0.30412912 0.006044704
0.090544194 0.0066809943 0.2686192 0.14904475 0.030700611 0.038412783 0.07457635 0.09834845
0.081444606 -0.22512765 -0.12062811 0.025466278 0.016021846 -0.045378827 -0.010340451 0.11083386
0.068576194 -0.01940028 -0.027648838 -0.10249424 0.0062855827 -0.018663246 0.012351639 -0.04730192
0.13099268 0.0124161625 -0.060476705 -0.02413335 -0.03679795 0.06619242 -0.11133 0.025851684
0.21329744 0.085711055 0.12674497 -0.0071442425 0.14875345 0.08240027 0.087090164 -0.0984526
0.10165869 0.038990673 -0.087859936 -0.01669417 -0.22083208 -0.09866026 -0.006679328 -0.041046362
0.058212414 0.11577021 -0.23498091 -0.24792138 -0.083986305 -0.038764752 -0.13520527 -0.1838277
0.15015726 0.010484946 0.14460701 0.075418234 0.11771334 0.1380939 0.17357534 0.028565316
0.0057361242 0.03203919 -0.09744657 -0.07053785 0.021644488 -0.0492382 0.118055105 -0.099930435
0.10374279 0.06391292 -0.054841004 -0.18451168 0.052793723 -0.072343946 -0.0023648674 -0.048248284
-0.11676011 -0.09674925 0.055381693 0.21751873 -0.0760703 0.12393134 0.08136414 0.0003888701
0.16628231 0.11120357 -0.15388893 0.0015312898 0.049402446 0.17673686 -0.004401859 0.095707
-0.13394685 0.080048375 -0.15765159 0.037712824 -0.029327676 0.006341355 0.05030088 0.019533647
-0.007350964 0.062596306 0.10138986 0.070522174 -0.20067048 -0.11542202 0.072706394 -0.051233117
-0.058024116 -0.039394524 -0.0817174 -0.25766745 0.09461964 -0.067041144 0.09558148 -0.094950356
-0.024361245 0.013083714 -0.18020011 0.09134464 0.013338319 0.0011453715 -0.15257333 -0.09610785
0.1041535 -0.0050143576 -0.19898129 0.21542364 0.05142052 -0.011183929 0.008455313 0.13022965

fc2.bias f4 [10]
00000000: 0e69 803d ac92 db3d 8001 043e 9ca5 003e
00000010: a7c2 fcbd fc2e 5d3c ff3a 31be 852e d8bd
00000020: dc33 b2bb 3441 a33b
0.062700376 0.10721335 0.12891197 0.12563175 -0.123418145 0.0134999715 -0.17307661 -0.10555748
-0.005438311 0.004982138
